my-dagster-project/results/api_experiment_run_0/model/training_checkpoints/best.ckpt (torch, 84418 bytes, 24 tensors)

input_features.module_dict.Datum__ludwig.encoder_obj.embed_month.embeddings.weight f4 [12, 10]
0	0x3f382b0d	0.7194069
1	0x3dbf2637	0.09333461
2	0xbdffb01e	-0.124847636
3	0xbeea4863	-0.45758352
4	0x3d733935	0.05938073
5	0x3f2fd0a8	0.6867776
6	0xbf1cacbf	-0.6120109
7	0x3f2f1282	0.68387616
8	0xbdb3440b	-0.087532125
9	0x3f1e935f	0.6194362
10	0x3ea08490	0.31351137
11	0x3eec5e81	0.4616585
12	0xbe9d1561	-0.30680373
13	0x3e4a1e61	0.19738151
14	0xbe31d0d6	-0.17364821
15	0xbc75969c	-0.014989521
16	0xbdc9dc5b	-0.098564826
17	0xbc017c6a	-0.007903198
18	0xbe80d416	-0.2516181
19	0x3cc8271b	0.02443271
20	0x3f140733	0.57823485
21	0xbe5adfcc	-0.21374434
22	0xbeed20c9	-0.46314076
23	0xbeae966e	-0.34099144
24	0xbf0dd28d	-0.553994
25	0x3e88ba6c	0.2670473
26	0xbf3ca104	-0.7368319
27	0x3f318fc9	0.69360024
28	0xbf1d974e	-0.61559
29	0x3f210913	0.6290447
30	0x3ea3db72	0.3200336
31	0x3cdeb7f6	0.027187329
32	0x3dcb927a	0.099400476
33	0xbde0a93b	-0.10969778
34	0x3e37f6ed	0.17965288
35	0x3e8c81ba	0.27442724
36	0xbec5f1c8	-0.38661027
37	0x3eb9e5f5	0.36308256
38	0xbea55b9a	-0.3229645
39	0x3ee4d439	0.44693163
40	0x3f324d6c	0.69649386
41	0x3efffcb0	0.49997473
42	0xbee63c8b	-0.44968066
43	0x3dddd0ed	0.10830865
44	0xbe1425f2	-0.144676
45	0x3ef6a748	0.481745
46	0xbf09d182	-0.5383531
47	0xbe979a2b	-0.29609808
48	0xbebcb1bf	-0.3685436
49	0xbe340b75	-0.17582496
50	0x3f2a9d92	0.66646683
51	0x3eb49562	0.3527022
52	0xbc3aeeeb	-0.011409502
53	0xbd02bade	-0.03191649
54	0xbe82f8df	-0.255805
55	0x3f21a666	0.6314453
56	0xbf18ea85	-0.5973285
57	0x3e852f99	0.26012877
58	0xbf0a892d	-0.54115564
59	0x3ec8fadf	0.392539
60	0x3d81626d	0.06317601
61	0x3ebec1dd	0.3725728
62	0xbeaf471f	-0.3423395
63	0x3e664f90	0.22491288
64	0xbf0f527a	-0.55985224
65	0xbda68e1b	-0.08132573
66	0xbf0b2d8b	-0.5436637
67	0x3f33f399	0.70293576
68	0xbc8af91c	-0.016964488
69	0x3f3d3f96	0.7392515
70	0xbe3afd32	-0.18260649
71	0xbe9a70ee	-0.30164284
72	0xbf25d179	-0.64772755
73	0xbf10215d	-0.5630091
74	0xbd383bf2	-0.044979043
75	0x3ed801ef	0.42188975
76	0x3e48e108	0.19617093
77	0xbcfe0a3b	-0.031010738
78	0xbf0bebd9	-0.5465675
79	0x3f050666	0.5196289
80	0x3cd07a5f	0.025448976
81	0x3f05253e	0.5200995
82	0xbeb3d561	-0.35123733
83	0x3dce0411	0.10059369
84	0xbf26a4d1	-0.6509524
85	0xbd28435e	-0.04107987
86	0xbd8894f3	-0.06669035
87	0x3eacbd58	0.33738208
88	0xbe9f0df6	-0.3106534
89	0x3f0acdf8	0.54220533
90	0x3f1800e8	0.5937638
91	0xbe35e43c	-0.17762846
92	0xbf01d73f	-0.50719064
93	0x3e90e2e0	0.28298092
94	0xbed926ad	-0.4241232
95	0x3d178a35	0.03699704
96	0xbf3b757e	-0.73226154
97	0xbd91e58a	-0.07123859
98	0xbd45ec08	-0.0483208
99	0x3e2749c2	0.1633673
100	0xbe191039	-0.14947595
101	0x3e5719e6	0.21005973
102	0xbf13b721	-0.5770131
103	0xbf22e676	-0.63632905
104	0xbf06525a	-0.5246941
105	0xbe76f325	-0.2411619
106	0xbf0d33f7	-0.5515742
107	0x3f3de8d4	0.7418339
108	0xbd98a5e9	-0.0745352
109	0x3ec4d6dc	0.38445175
110	0xbe827033	-0.25476226
111	0xbe11e712	-0.14248303
112	0xbecb5a1e	-0.3971719
113	0xbde933ad	-0.113868095
114	0xbf3337ea	-0.70007193
115	0xbbd42eb0	-0.006475292
116	0xbf08dfe4	-0.5346663
117	0x3e659af3	0.2242239
118	0xbebe2362	-0.3713637
119	0x3e4301bb	0.19043629

input_features.module_dict.Datum__ludwig.encoder_obj.embed_day.embeddings.weight f4 [31, 10]
0	0xbdc09ba7	-0.09404688
1	0xbdba7f02	-0.09106256
2	0xbd8557ce	-0.06510888
3	0xbea60620	-0.32426548
4	0xbef8e991	-0.48615697
5	0x3f0121bb	0.50442094
6	0x3d913514	0.07090202
7	0x3f0bb53c	0.54573417
8	0xbd99014e	-0.07470952
9	0xbf06928c	-0.5256736
10	0x3ed9b050	0.42517328
11	0x3d7bb5ad	0.061452556
12	0x3bd8e0c6	0.006618592
13	0xbf018f81	-0.50609595
14	0xbf0f566f	-0.5599126
15	0x3e938a36	0.28816384
16	0x3d6f8cb0	0.05848378
17	0x3eb89b60	0.36056042
18	0xbf00d16f	-0.5031957
19	0x3db34d1f	0.08754944
20	0xbdf00f58	-0.117216766
21	0x3dd55f18	0.10418528
22	0x3e714832	0.23562697
23	0x3b2fb5af	0.0026811173
24	0x3dfde38a	0.12396915
25	0x3f0838e4	0.5321181
26	0xbe2383eb	-0.15968291
27	0x3ea2cfed	0.3179926
28	0xbeb84e5d	-0.35997286
29	0xbe7ac0f1	-0.24487664
30	0xbdf7f9ae	-0.121081695
31	0x3f052c18	0.52020407
32	0xbdfcea9e	-0.12349437
33	0x3c17c948	0.009264298
34	0xbd5112e2	-0.0510434
35	0x3e9ed821	0.31024268
36	0xbd7cbe36	-0.061704837
37	0x3f116bdd	0.5680521
38	0xbde52c6e	-0.11190115
39	0xbe1fe0b0	-0.15613055
40	0xbe2cbd2e	-0.16869041
41	0x3eac08b6	0.33600396
42	0x3dd3eec8	0.10348278
43	0xbebfc872	-0.37457615
44	0x3e0e54c2	0.1389952
45	0x3e8c8412	0.27444512
46	0xbd81e9e5	-0.0634344
47	0x3d028ff3	0.031875562
48	0xbe5fcaaa	-0.21854654
49	0x3b937ada	0.004500729
50	0x3d8f7976	0.07005589
51	0xbd34129b	-0.043963056
52	0x3cef1217	0.02918343
53	0xbef77685	-0.4833261
54	0xbd539283	-0.051653396
55	0x3ef74427	0.48294184
56	0xbe58bb05	-0.21165092
57	0x3e9ef26f	0.31044337
58	0xb9b30078	-0.0003414189
59	0xbe0c3fdb	-0.13696234
60	0x3d00ede8	0.031476885
61	0x3ebf8f36	0.3741395
62	0x3eb8f108	0.36121392
63	0xbd64031f	-0.05566704
64	0xbe830c40	-0.25595284
65	0x3daf24c6	0.08551936
66	0x3e41bdde	0.18920085
67	0x3e21e9bc	0.15811819
68	0xbea06120	-0.313241
69	0x3d1e6e9c	0.038679704
70	0x3efcf3ed	0.4940485
71	0x3e085d2d	0.13316794
72	0x3d93e1e4	0.072208196
73	0xbe410dc5	-0.18852909
74	0xbe54a937	-0.20767675
75	0x3e8d29b3	0.27570876
76	0x3e8203b5	0.25393453
77	0xbe03c533	-0.12868194
78	0xbeabc9af	-0.3355231
79	0x3df5388f	0.11973678
80	0x3ea7ae83	0.3275033
81	0x3e29f7e2	0.16598466
82	0xbd7431df	-0.059617873
83	0xbee254c0	-0.44205284
84	0xbf0a9e44	-0.54147744
85	0x3d9668b5	0.0734419
86	0x3e9383e2	0.28811556
87	0x3ef3aa3d	0.4759082
88	0xbd02fec7	-0.031981256
89	0xbf0e3ff4	-0.55566335
90	0xbd5e9b53	-0.054347347
91	0x3dfa3ea7	0.12218981
92	0x3f09c5a7	0.5381722
93	0xbe1a0f99	-0.15045013
94	0xbe9725f3	-0.2952114
95	0x3eb50e0f	0.35362288
96	0x3c2896f2	0.010289894
97	0xbc8ea777	-0.017413838
98	0x3d950bca	0.07277639
99	0xbec6a2ed	-0.38796178
100	0x3dc4f9a7	0.0961793
101	0xbe4ea96b	-0.20181815
102	0x3ed81778	0.42205405
103	0x3db8d5dc	0.090251654
104	0xbd539bfc	-0.05166243
105	0xbd9b7b57	-0.075918846
106	0xbe63db01	-0.22251512
107	0xbdb77676	-0.089581415
108	0x3dae438e	0.08508979
109	0xbcc7e917	-0.024403138
110	0x3ef7246c	0.48269975
111	0x3ebc10a0	0.36731434
112	0x3e804635	0.25053564
113	0xbe458943	-0.19290642
114	0xbef139af	-0.47114322
115	0xbe17b804	-0.1481629
116	0xbe5c70c8	-0.21527398
117	0x3ebece98	0.37266994
118	0xbec1863b	-0.37797722
119	0xbe8c621e	-0.27418607
120	0xbd4d245e	-0.05008351
121	0x3ddae19c	0.10687563
122	0xbdda0d7e	-0.10647105
123	0xbee63b65	-0.4496719
124	0xbd822d24	-0.06356266
125	0x3d9e7edb	0.077390395
126	0x3ec5f003	0.38659677
127	0x3dd1db8d	0.10246954
128	0xbef66b32	-0.4812866
129	0xbe8eb8d5	-0.2787539
130	0xbcb45123	-0.022011345
131	0x3d58be39	0.052915785
132	0xbe558471	-0.20851304
133	0x3ca5a1d2	0.020218764
134	0xbee6bb75	-0.45064893
135	0x3ec044ff	0.3755264
136	0x3ea267fa	0.31719953
137	0x3efc431f	0.4926996
138	0xbef9cea2	-0.4879046
139	0x3d9572c8	0.072972834
140	0xbc73cc22	-0.014880212
141	0x3ea13023	0.31482038
142	0x3f0484e9	0.51765305
143	0xbe808c39	-0.2510698
144	0xbe42e6e8	-0.19033396
145	0x3dca5e38	0.09881252
146	0xbe31c62c	-0.17360753
147	0x3ed0e40f	0.40798995
148	0xbf13e979	-0.57778126
149	0x3cfaa9f9	0.030598627
150	0x3ee763a5	0.4519321
151	0x3f08b3af	0.53399175
152	0x3d8b042e	0.067879066
153	0xbf02aec1	-0.51047903
154	0xbdcd8da4	-0.100367814
155	0x3ecb08f6	0.39655274
156	0xbe6fd109	-0.23419584
157	0x3e0a8c52	0.1353009
158	0xbeda1a7a	-0.42598325
159	0xbe73ee49	-0.23821367
160	0xbca8f00e	-0.02062228
161	0x3c8f0f7e	0.017463442
162	0x3d20f53f	0.039296385
163	0xbf0f0c91	-0.5587855
164	0x3e0268c5	0.12735279
165	0x3f01a006	0.506348
166	0x3db75a11	0.08952726
167	0x3e3331b8	0.17499435
168	0xbeb4375d	-0.3519849
169	0xbf0c8711	-0.54893595
170	0xbe4f11c7	-0.20221625
171	0x3ea33e35	0.31883398
172	0xbd41fef4	-0.047362283
173	0xbee3d20e	-0.44496197
174	0xbe60f0a1	-0.21966793
175	0x3d7daf1b	0.06193457
176	0x3cdd6f64	0.027030654
177	0x3e6ff9d6	0.23435149
178	0xbe8fcbcf	-0.2808518
179	0xbeae05eb	-0.3398889
180	0xbca24412	-0.01980785
181	0xbe101a34	-0.14072496
182	0x3ef3c541	0.4761143
183	0xbeb2f98b	-0.3495601
184	0xbdad1a94	-0.08452335
185	0x3d544dc8	0.05183199
186	0x3e31cb9d	0.17362829
187	0x3f153cf0	0.5829611
188	0xbcac928b	-0.02106597
189	0xbf0943ec	-0.53619266
190	0x3ea3c864	0.31988823
191	0x3f09b5a2	0.53792775
192	0x3e85b29a	0.26112825
193	0x3d6f044b	0.058353703
194	0x3e40f8e5	0.18844946
195	0x3e052a88	0.13004506
196	0x3e68e94b	0.22745244
197	0xbd2fa66a	-0.042883314
198	0xbe8e4878	-0.27789664
199	0x3d996838	0.07490581
200	0x3ebc5182	0.36780936
201	0xbd81031a	-0.0629942
202	0xbe12ccad	-0.1433589
203	0xbeef09b5	-0.46687093
204	0xbf128675	-0.57236415
205	0xbdd182c1	-0.102300175
206	0x3d64dd3c	0.055875048
207	0x3efc883e	0.49322695
208	0xbe1171d7	-0.14203583
209	0xbf017a80	-0.50577545
210	0xbe1931c6	-0.14960393
211	0x3eb541c1	0.3540173
212	0xbe09e72b	-0.1346709
213	0xbe6f189d	-0.23349233
214	0x3bd59174	0.0065175835
215	0xb93bf2e0	-0.00017924188
216	0x3dc6077c	0.09669396
217	0x3e34a3e7	0.17640649
218	0xbe8e1387	-0.27749273
219	0xbec7e651	-0.39042905
220	0xbe3a7e4b	-0.1821224
221	0xbe129396	-0.14314112
222	0xbd5d6a94	-0.05405672
223	0x3e35b3fa	0.17744437
224	0xbebb8770	-0.36626768
225	0xbd9d3d9c	-0.07677767
226	0x3e6c6566	0.23085555
227	0x3ea6c38c	0.32571065
228	0x3c8a0d5a	0.01685207
229	0x3db873aa	0.09006436
230	0x3ec30901	0.38092807
231	0xbe51a778	-0.2047404
232	0x3e469dde	0.19396159
233	0x3d092dae	0.03349083
234	0xbe6539d2	-0.22385338
235	0xbd1c4566	-0.03815212
236	0x3f0352ef	0.5129842
237	0x3da2f212	0.079563275
238	0xbed54090	-0.4165082
239	0xbf0d5e01	-0.55221564
240	0x3e3da62c	0.18520421
241	0x3eb06859	0.3445461
242	0x3e7ab47f	0.24482916
243	0xbdfced3a	-0.12349935
244	0xbef58069	-0.47949532
245	0xbe2c58b3	-0.16830711
246	0x3e1ddf82	0.15417293
247	0x3f12d3d0	0.5735445
248	0x3caaabec	0.020833932
249	0xbedd1547	-0.43180296
250	0x3ddfe11c	0.10931608
251	0xbdec8424	-0.11548641
252	0xbd0e449b	-0.034733396
253	0xbe0139ea	-0.12619749
254	0x3ccd443c	0.02505695
255	0x3eff0005	0.49804702

input_features.module_dict.Datum__ludwig.encoder_obj.embed_weekday.embeddings.weight f4 [7, 7]
0	0x3ecc0aab	0.3985189
1	0xbe85f66d	-0.2616457
2	0x3e2d475e	0.16921756
3	0xbbce0d0f	-0.006288178
4	0xbe9938b6	-0.2992608
5	0xbec47730	-0.38372183
6	0xbe413500	-0.18867874
7	0xbe29b409	-0.16572584
8	0x3f3fe0e6	0.7495254
9	0xbe8cd174	-0.2750355
10	0x3f45b0cd	0.772229
11	0x3e9d2e14	0.30699217
12	0xbf163ce2	-0.5868665
13	0xbf42705a	-0.75952685
14	0x3f0e8f67	0.55687565
15	0x3f482dee	0.78195083
16	0xbf40d219	-0.75320584
17	0x3e52e1bc	0.20593923
18	0xbf770881	-0.9649735
19	0xbf4c9bf1	-0.7992545
20	0xbe1a9f00	-0.15099716
21	0x3e57e43a	0.21083155
22	0x3ed19d61	0.40940383
23	0xbedd9933	-0.43280944
24	0x3f5ca570	0.8618994
25	0xbe6a42f0	-0.22877097
26	0xbf26b4ea	-0.651198
27	0xbea1fe76	-0.3163945
28	0x3e42bee3	0.1901813
29	0x3eff9f71	0.49926332
30	0xbf37a861	-0.717413
31	0x3f00c8ed	0.5030659
32	0xbf27763e	-0.654148
33	0xbf4ef6b9	-0.8084522
34	0xbf22d1ba	-0.6360127
35	0x3f21a06c	0.6313541
36	0x3f0f444b	0.5596358
37	0x3f161350	0.5862322
38	0x3ec4c189	0.38428906
39	0x3efd36ae	0.4945578
40	0xbdb374da	-0.08762522
41	0xbeb86d46	-0.3602087
42	0x3ea779ea	0.327102
43	0xbeadaf96	-0.33923024
44	0xbee2340e	-0.4418034
45	0xbe56120a	-0.20905319
46	0x3e0caeb0	0.13738513
47	0x3eac8d08	0.33701348
48	0xbe82301f	-0.25427338

input_features.module_dict.Datum__ludwig.encoder_obj.embed_yearday.embeddings.weight f4 [366, 10]
0	0xbd984477	-0.07434934
1	0x3c8b979d	0.017040068
2	0xbd987de1	-0.074458845
3	0xbda86f7d	-0.0822439
4	0x3d86da44	0.065845996
5	0xbcadd629	-0.021220284
6	0x3dec678b	0.11543187
7	0x3dfbaaee	0.122884616
8	0x3d1ac33c	0.037783846
9	0x3d3212cd	0.04347496
10	0xbcbbc51b	-0.022921136
11	0xbd46fecc	-0.048582837
12	0x3d495bd5	0.049159843
13	0xbd5de594	-0.05417402
14	0xbbc18bbc	-0.00590655
15	0x3d77dfea	0.060516275
16	0xbdb4b962	-0.088244215
17	0xb99afc80	-0.00029561296
18	0xbda6a810	-0.08137524
19	0xbdf7841a	-0.12085743
20	0xbd066dd3	-0.03281958
21	0x3d290072	0.04126019
22	0x3e23ccf3	0.1599615
23	0xb8442e70	-4.677329e-05
24	0xbe18817a	-0.14893141
25	0xbe0212a8	-0.1270243
26	0xbdb598ad	-0.08867011
27	0x3d03cd59	0.032178257
28	0xbd303dae	-0.043027572
29	0xbe3787f0	-0.1792295
30	0xbcd165d6	-0.025561254
31	0xbe23c400	-0.15992737
32	0xbbc5e3df	-0.0060391272
33	0xbe33a754	-0.175443
34	0x3d32f62b	0.043691795
35	0xbe43e7ea	-0.19131437
36	0x3cc0f1b4	0.023552753
37	0x3d7eb2da	0.062182285
38	0xbda0dfa6	-0.078551576
39	0x3a61e1aa	0.00086166954
40	0xbdaaf74f	-0.083479516
41	0x3c139d59	0.009009683
42	0x3e2fb6bb	0.1715955
43	0xbe3f7c48	-0.18699753
44	0xbcd156ca	-0.02555408
45	0xbd60ef50	-0.054915726
46	0xbd550f75	-0.052016694
47	0x3dbc7efd	0.092039086
48	0xbd1463a4	-0.036227837
49	0xbe12e6d5	-0.14345868
50	0xbdabd184	-0.08389571
51	0x3d5ca143	0.05386473
52	0x3e2543b0	0.16139102
53	0xbd9ed7e5	-0.07756022
54	0xbe40873b	-0.18801586
55	0xbd8bf899	-0.068345256
56	0xbe247d30	-0.1606338
57	0x3e305870	0.17221236
58	0xbe12d05e	-0.14337298
59	0xbdb24bf6	-0.08705895
60	0xbd8cb7fb	-0.06871029
61	0xbc8a68ee	-0.016895737
62	0x3e2b80ef	0.16748403
63	0xbd096ddc	-0.033552036
64	0x3d024877	0.03180739
65	0x3d52a674	0.051428273
66	0x3d666911	0.056252543
67	0xbae36fb0	-0.0017352011
68	0xbd8ad3c1	-0.0677867
69	0x3c09c4b8	0.008408718
70	0xbdbae656	-0.09125964
71	0x3b87b75f	0.0041417326
72	0x3d27739b	0.040881734
73	0xbe193936	-0.1496323
74	0xbbdb257a	-0.006687817
75	0xbd3c56e3	-0.0459813
76	0xbc04e3ec	-0.008110981
77	0x3e3c9a72	0.18418291
78	0x3cfd7678	0.03094028
79	0x3d37e26f	0.04489368
80	0xbd92a682	-0.07160665
81	0xbe3d1f11	-0.18468882
82	0x3adc745d	0.0016819347
83	0xbe28247d	-0.16420169
84	0xbe43e727	-0.19131146
85	0xbe1a4198	-0.15064085
86	0xbe4f1109	-0.20221342
87	0xbd145d8c	-0.036222026
88	0xbe1ba3bc	-0.15199178
89	0xbe5f96b2	-0.2183483
90	0xbe1b54bf	-0.15169047
91	0xbcc61d98	-0.024184033
92	0x3e417304	0.18891531
93	0xbdefe362	-0.11713292
94	0xbde79294	-0.113072544
95	0xbc5e2657	-0.013558946
96	0xbe13c703	-0.14431386
97	0x3c847f57	0.016174002
98	0x3ba05ee6	0.0048941253
99	0xbe468c91	-0.1938956
100	0xbd38cfd2	-0.045120068
101	0x3d5979f0	0.053094804
102	0x3dc29f64	0.095030576
103	0xbd077fa3	-0.03308071
104	0xbe0b9b83	-0.13633542
105	0xbd91a9c4	-0.07112458
106	0xbd84cb9f	-0.0648415
107	0x3dc007c3	0.093764804
108	0xbc24948a	-0.01004518
109	0x3d0323a0	0.032016397
110	0xbe1872ea	-0.14887586
111	0xbd427b5a	-0.04748092
112	0xbac37a1a	-0.0014913708
113	0xbe214a24	-0.15750939
114	0xbd8332b9	-0.06406159
115	0xbe2e25cd	-0.17006607
116	0x3ce511f9	0.027962672
117	0x3d8c8d48	0.06862885
118	0xbdf547e1	-0.119766004
119	0xba7cce91	-0.0009643818
120	0xbe387da6	-0.18016681
121	0xbddd27c1	-0.10798598
122	0x3d38c983	0.04511405
123	0xbe317502	-0.17329791
124	0xbe12c145	-0.14331539
125	0xbdb43eb1	-0.0880102
126	0x3cdaea5d	0.026723081
127	0x3e3cd619	0.18441047
128	0x3ca90def	0.020636527
129	0xbe19df78	-0.15026653
130	0xbe0b8d37	-0.13628088
131	0x3d6b5526	0.05745425
132	0x3dd361a6	0.10321359
133	0xbd5b1d36	-0.053494655
134	0xbd19df79	-0.037566636
135	0xbe22be78	-0.1589297
136	0xbdcb3c14	-0.09923568
137	0x3e348a3a	0.17630854
138	0xbdac82ed	-0.084234096
139	0xbd88393e	-0.06651543
140	0xbe277c0f	-0.16355918
141	0xbe031036	-0.12799153
142	0x3d823041	0.0635686
143	0xbe110236	-0.14161
144	0xbd9ae9c0	-0.075641155
145	0xbc4f6872	-0.012659179
146	0xbe407710	-0.18795419
147	0x3dc7fc3a	0.09764905
148	0xbe10a646	-0.14125928
149	0xbe0398e2	-0.12851289
150	0xb9da5cce	-0.00041649345
151	0x3d576467	0.052585986
152	0x3ca9dd72	0.020735476
153	0xbdd762a4	-0.10516861
154	0xbe28125a	-0.1641325
155	0xbdf40afd	-0.11916158
156	0xbe27ffea	-0.16406217
157	0x3caf2b74	0.021383025
158	0xbcb70fed	-0.022346461
159	0xbe3233a4	-0.17402512
160	0x3d8a78ca	0.0676132
161	0x3d1af865	0.037834544
162	0xbd9873f5	-0.07443992
163	0xbdda90ae	-0.10672127
164	0xbb2895fd	-0.0025724166
165	0xbd963f5d	-0.07336304
166	0xbd7b4441	-0.06134439
167	0xbc585f1a	-0.013206268
168	0x3d74aa46	0.059732698
169	0xbdf74c05	-0.120750464
170	0x3d3af52f	0.04564398
171	0xbd4a1319	-0.04933462
172	0x3dc160c6	0.09442286
173	0x3d073dda	0.03301797
174	0xbda5e3d6	-0.08100097
175	0xbe0da27c	-0.13831514
176	0xbdb04804	-0.08607486
177	0x3e276076	0.1634539
178	0xbe1b4511	-0.15163065
179	0xbd406da8	-0.046979576
180	0xbe473d95	-0.19457085
181	0xbb340858	-0.0027470794
182	0x3dff76ae	0.12473808
183	0xbd8de52c	-0.06928477
184	0xbc91f559	-0.017817186
185	0xbd9ad4c3	-0.07560112
186	0xbbf4c14f	-0.0074693332
187	0xbce5c08f	-0.02804592
188	0xbdb48eee	-0.08816324
189	0xbcac2b55	-0.021016756
190	0x3d9786c3	0.07398751
191	0x3c604bb2	0.013689922
192	0xbd0ea295	-0.03482302
193	0x3d2d9aed	0.042384077
194	0xbda5772c	-0.08079371
195	0xbda8f3dd	-0.08249638
196	0xbe2e7e24	-0.17040306
197	0x3d06b00c	0.032882735
198	0x3d1daed4	0.038496807
199	0xbd1bf497	-0.038075056
200	0xbe01013a	-0.12598124
201	0xbc4456e4	-0.011983607
202	0x3c9c2293	0.019059455
203	0x3d6f969a	0.058493234
204	0xbe26d777	-0.16293131
205	0xbdc848be	-0.097794995
206	0xbe363934	-0.17795259
207	0x3b7b9196	0.0038386337
208	0xbc374f3d	-0.0111883255
209	0x3d6c0ba7	0.0576283
210	0xbd27f6d4	-0.041006878
211	0x3d8280c6	0.06372218
212	0x3dcc6c19	0.099815555
213	0x3b40f3a0	0.0029442087
214	0x3d1875ab	0.037221592
215	0x3d0b9991	0.034082
216	0xbe115f1b	-0.14196436
217	0x3e39278c	0.18081492
218	0x3c81535b	0.015786817
219	0xbe0cf765	-0.13766249
220	0xbe03243d	-0.12806793
221	0xbe2fd885	-0.1717244
222	0x3de4e491	0.11176408
223	0xbe36906b	-0.17828529
224	0xbc828185	-0.0159309
225	0xbd184d7e	-0.037183277
226	0xbe3d6fc2	-0.18499663
227	0x3dd62a0f	0.10457241
228	0xbd9ca58e	-0.076487646
229	0xbce3b74c	-0.027797364
230	0x3ba4ec28	0.005033035
231	0xbe442d05	-0.19157799
232	0x3e431147	0.1904956
233	0x3d0aa126	0.03384509
234	0xbc9ba335	-0.018998722
235	0xbe414ae0	-0.18876219
236	0xbdf3c9ee	-0.119037494
237	0x3d044911	0.032296244
238	0xbdca939f	-0.09891438
239	0xbb87e661	-0.0041473364
240	0xbccce295	-0.025010386
241	0x3cfc4bf4	0.030797936
242	0x3d03b404	0.0321541
243	0xbd0898c3	-0.03334881
244	0xbce64b42	-0.028112058
245	0xbe3ac4ac	-0.18239087
246	0xbe4dd2e8	-0.20099986
247	0x3be5f82e	0.0070181107
248	0x3c885e2a	0.016646463
249	0xbe4cdec9	-0.20006861
250	0xbe329a31	-0.17441632
251	0x3c084047	0.008316106
252	0x3e10b07e	0.14129826
253	0x3d099fc1	0.03359962
254	0xbe242f8e	-0.16033766
255	0xbe27a71a	-0.16372338

input_features.module_dict.Datum__ludwig.encoder_obj.embed_hour.embeddings.weight f4 [24, 10]
0	0x3f3a8190	0.72853947
1	0xbe3ddaf5	-0.18540557
2	0x3e75c7c8	0.24001992
3	0xbee4d0ee	-0.4469065
4	0x3ef15b22	0.4713984
5	0x3f16dda3	0.5893194
6	0xbf1b75eb	-0.60726804
7	0x3e09c0ba	0.13452426
8	0x3e16f64c	0.14742392
9	0xbed2e0a0	-0.41187
10	0xbe9e5fd2	-0.3093248
11	0xbe0a3d9d	-0.13500066
12	0x3c6dbf74	0.014510978
13	0xbda09ccd	-0.078424074
14	0xbe936541	-0.28788188
15	0xbe86bf71	-0.26317933
16	0x3de89fc5	0.113585986
17	0x3e9393bb	0.28823647
18	0x3ec3aa63	0.38215932
19	0xbd427c4f	-0.04748183
20	0x3e2581fe	0.1616287
21	0xbeaad2ce	-0.33363956
22	0x3e6538a9	0.22384895
23	0x3ecd85dc	0.4014119
24	0x3e6001c3	0.21875672
25	0xbe2a144e	-0.16609308
26	0x3eaf5c7d	0.3425025
27	0xbecbb348	-0.39785218
28	0xbd4e7956	-0.050408684
29	0xbdd52b62	-0.10408665
30	0xbed689c1	-0.41901973
31	0xbe75663a	-0.23964778
32	0xbe9cb4da	-0.3060673
33	0x3de73b75	0.112906374
34	0xbd0f2026	-0.03494277
35	0x3e45905c	0.1929335
36	0xbdc1891b	-0.09449979
37	0x3eb16aec	0.34651887
38	0x3d42e57c	0.047582135
39	0x3eb24a93	0.3482252
40	0x3eaea864	0.34112847
41	0xbeb666cb	-0.356253
42	0xbe907189	-0.2821162
43	0x3e818cde	0.25302786
44	0x3ecb3453	0.39688358
45	0xbeb79398	-0.35854793
46	0x3bc977d1	0.0061483164
47	0xbe2561d1	-0.16150595
48	0x3eca7e20	0.3954935
49	0x3eb2acb1	0.34897378
50	0x3e9c89ba	0.30573827
51	0x3e677dba	0.22606555
52	0xbd21666a	-0.03940431
53	0x3ec6771c	0.38762748
54	0xbe494bd7	-0.19657837
55	0x3caa15b6	0.020762306
56	0xbde25e39	-0.11053128
57	0xbe9ce781	-0.30645373
58	0xbe4bd995	-0.1990722
59	0x3dd09895	0.10185353
60	0xbd198504	-0.03748037
61	0xbe8e7b5d	-0.27828494
62	0xbd5ac017	-0.053405847
63	0x3d9495a3	0.072551034
64	0xbe967bae	-0.29391235
65	0x3e81e577	0.2537038
66	0xbeb6dc69	-0.35715035
67	0x3b83b2af	0.0040191035
68	0xbeaff15f	-0.3436384
69	0xbec1f3bc	-0.37881267
70	0xbd55be5c	-0.052183494
71	0x3ec3343a	0.38125783
72	0x3ecb53c9	0.3971236
73	0x3e1a9afa	0.15098181
74	0x3ea6b5eb	0.32560667
75	0xbe6b2655	-0.22963841
76	0x3e722e32	0.23650435
77	0x3e833c77	0.2563207
78	0xbecd8e09	-0.40147427
79	0xbea4d32a	-0.32192355
80	0x3e39d75b	0.18148558
81	0x3d1efff0	0.0388183
82	0xbe9195dd	-0.2843465
83	0xbea9ba16	-0.33149785
84	0x3e9b7260	0.303607
85	0x3d3bf7bc	0.045890555
86	0xba73b6e1	-0.00092969654
87	0xbecfec8a	-0.40610152
88	0x3ebcb65c	0.3685788
89	0xbe8e2ec9	-0.2777007
90	0x3e3fad37	0.1871842
91	0xbd4ee608	-0.050512344
92	0x3c6046c6	0.013688749
93	0x3e533749	0.20626558
94	0xbde52ee8	-0.11190587
95	0xbdf15cd9	-0.117852874
96	0x3eab75f2	0.33488423
97	0xbea4d059	-0.32190207
98	0x3e3f6d78	0.18694103
99	0xbdde06c9	-0.10841138
100	0xbe0fbb69	-0.14036335
101	0x3e8ffaf3	0.28121147
102	0x3d913edf	0.0709207
103	0xbec83edb	-0.39110455
104	0x3ec03402	0.3753968
105	0xbe55731d	-0.20844693
106	0x3eb9efa8	0.36315656
107	0xbe070150	-0.13184094
108	0x3ed1b6df	0.40959832
109	0x3dfdcca3	0.12392547
110	0xbca63e4b	-0.020293375
111	0x3e243567	0.16035996
112	0xbc5607c5	-0.013063376
113	0xbe555af9	-0.20835485
114	0x3e6b4e04	0.2297898
115	0x3e8b81d1	0.2724748
116	0xbd579006	-0.052627586
117	0x3eca4fb3	0.3951393
118	0x3cda8b6c	0.02667781
119	0xbe637ec8	-0.22216332
120	0xbe6a6b2f	-0.2289245
121	0x3e90b6d1	0.28264478
122	0xbe2e4140	-0.17017078
123	0x3e87d917	0.26532814
124	0xbed0ee26	-0.40806693
125	0x3c6d165f	0.014470666
126	0xbe949c55	-0.29025522
127	0x3e189706	0.14901361
128	0x3eaeac7b	0.34115967
129	0x3e294684	0.16530806
130	0xbe13e70e	-0.14443609
131	0xbec9c58d	-0.39408532
132	0xbe4bd010	-0.19903588
133	0xbe7db81b	-0.24777262
134	0x3ecd62f3	0.40114555
135	0xbe6748cf	-0.22586368
136	0x3e26533f	0.16242693
137	0x3eaca94b	0.3372291
138	0x3e1b1521	0.15144779
139	0xbebcbc90	-0.36862612
140	0xbd4375d6	-0.0477198
141	0xbdff584e	-0.12468015
142	0x3e8a94a2	0.27066523
143	0xbd2167ba	-0.039405562
144	0xbcb582dc	-0.022157125
145	0x3ebf54e8	0.37369466
146	0x3dccb9f2	0.09996404
147	0x3e4767c9	0.19473185
148	0xbe0a7972	-0.1352289
149	0x3e8ca8a0	0.274724
150	0x3d776620	0.06040013
151	0xbdacd15c	-0.0843837
152	0x3da5cc23	0.080955766
153	0xbea94d2e	-0.33066696
154	0x3c7d1340	0.015446484
155	0x3e45479e	0.19265601
156	0xbec96695	-0.39336076
157	0xbe647ee0	-0.22314024
158	0x3e86c10f	0.26319167
159	0x3c1c15c3	0.009526673
160	0xbc6a705b	-0.014309014
161	0x3d2f9776	0.042869054
162	0xbe411125	-0.18854196
163	0x3eb1db68	0.34737706
164	0xbd2a9bc5	-0.04165246
165	0xbe1ca0b1	-0.15295674
166	0x3e626f5b	0.22112791
167	0xbeb3061e	-0.34965605
168	0xbd9eb0f6	-0.07748596
169	0x3d2d6c44	0.04233958
170	0xbe057fb0	-0.1303699
171	0x3e6a1ea9	0.22863258
172	0xbeb7ae43	-0.3587514
173	0xbdf8073a	-0.12110753
174	0xbe34cc41	-0.17656042
175	0x3ec70601	0.38871768
176	0x3e2bac42	0.1676493
177	0xbea071a6	-0.31336707
178	0x3e26b798	0.16280973
179	0xbc11f60e	-0.008908762
180	0x3ec4e483	0.3845559
181	0x3e6d64b4	0.23182946
182	0xbe7b3a97	-0.24534069
183	0x3ebfb90b	0.37445864
184	0xbd99e004	-0.07513431
185	0xbdc3e7dd	-0.09565709
186	0x3e00a1ae	0.12561676
187	0x3ed5aff4	0.41735804
188	0x3e01cb26	0.12675151
189	0xbecf8699	-0.40532377
190	0xbe0951de	-0.13410136
191	0x3ec8484e	0.39117664
192	0xbe179cff	-0.14805983
193	0xbe4ef35f	-0.20210026
194	0xbeab709a	-0.33484346
195	0xbe6d7516	-0.23189196
196	0xbe6b30f3	-0.22967891
197	0x3dcd7874	0.1003274
198	0x3e2bdcc1	0.1678343
199	0x3ecd4518	0.40091777
200	0x3e8d26f7	0.2756879
201	0x3bcb656a	0.006207158
202	0x3e67fc9e	0.2265496
203	0x3e75e09e	0.24011466
204	0xbeb983b5	-0.36233297
205	0x3e590f49	0.21197237
206	0xbe93219b	-0.28736576
207	0x3ea6173a	0.32439595
208	0xbe3b190d	-0.18271275
209	0x3db28229	0.08716232
210	0xbb9277dc	-0.0044698548
211	0x3e47929b	0.1948952
212	0x3d85d0f6	0.06533997
213	0xbe9c0528	-0.30472684
214	0x3e2e419a	0.17017213
215	0x3e7dc0dd	0.24780603
216	0xbe6003e0	-0.21876478
217	0xbe8b869a	-0.2725113
218	0xbe927519	-0.28604963
219	0xbe514cb2	-0.20439413
220	0xbd58ef37	-0.052962508
221	0x3d00a7a3	0.03140987
222	0xbb422d62	-0.00296291
223	0xbde38c6c	-0.11110768
224	0x3e8578b7	0.2606866
225	0x3cb5dd7e	0.022200342
226	0xbe79c6eb	-0.24392287
227	0xbde3afd7	-0.11117523
228	0xbe7ce8dc	-0.24698204
229	0xbe17c1c0	-0.14820004
230	0xbecae38a	-0.39626724
231	0x3d96537a	0.07340141
232	0xbea6a77c	-0.32549655
233	0x3e265f96	0.162474
234	0x3e935726	0.28777426
235	0xbea00196	-0.3125121
236	0xbe63031b	-0.22169153
237	0xbea9f1e9	-0.33192375
238	0x3de598ec	0.11210808
239	0x3da67851	0.08128417

input_features.module_dict.Datum__ludwig.encoder_obj.embed_minute.embeddings.weight f4 [60, 10]
0	0xbeddf0c9	-0.43347767
1	0x3cc2d3b2	0.023782585
2	0x3edbd7bb	0.42938027
3	0xbdcbc793	-0.09950175
4	0xbe9f4f10	-0.31115007
5	0xbedac604	-0.427292
6	0xbeb0f798	-0.345639
7	0x3eec6ec1	0.4617825
8	0xbea254a3	-0.31705198
9	0xbef8d4e4	-0.48599923
10	0x3e52e322	0.20594457
11	0xbe89038c	-0.2676052
12	0xbdcdeb88	-0.1005469
13	0x3de70803	0.11280825
14	0x3e847e51	0.25877622
15	0x3e917b8e	0.28414577
16	0xbd8cdb47	-0.06877761
17	0x3dc81508	0.097696364
18	0xbe83a536	-0.25711983
19	0xbd695687	-0.056967285
20	0xbdba81df	-0.09106802
21	0x3daa3570	0.08310974
22	0xbe446d6c	-0.19182366
23	0x3d818a5b	0.06325217
24	0x3e1ae2a6	0.15125522
25	0x3e69a546	0.22816953
26	0xbd4ac475	-0.049503762
27	0x3e88f2af	0.26747653
28	0xbe8d9ff1	-0.27661088
29	0xbda9e8c0	-0.08296347
30	0x3de3508b	0.11099347
31	0x3d99c063	0.07507398
32	0x3e0d2f7a	0.13787642
33	0xbe46f001	-0.19427492
34	0x3e38982d	0.180268
35	0xbe8caee6	-0.27477187
36	0xbe4d905f	-0.20074604
37	0xbca31be3	-0.019910758
38	0xbe91a090	-0.28442812
39	0xbe8e7b8d	-0.27828637
40	0xbe8511ce	-0.25990146
41	0x3e710875	0.23538382
42	0x3d838612	0.06422056
43	0xbdbf501b	-0.09341451
44	0xbc4523fd	-0.012032506
45	0xbe82a774	-0.25518382
46	0xbe8d924e	-0.27650684
47	0xbe511263	-0.2041717
48	0xbe910470	-0.28323698
49	0x3e453d6a	0.19261709
50	0xbdd1d0f2	-0.10244931
51	0xbda1db4e	-0.07903157
52	0xbe811590	-0.25211763
53	0x3d469c46	0.048488878
54	0xbd33eb3d	-0.043925513
55	0xbe4c1907	-0.19931422
56	0x3e4037bc	0.18771261
57	0x3e7cb38e	0.2467787
58	0xbe55b054	-0.20868045
59	0x3e29dbda	0.16587773
60	0xbd42b858	-0.047539085
61	0xbb352504	-0.0027640471
62	0x3dff3746	0.124617144
63	0xbd5aa204	-0.053377166
64	0x3e7eb859	0.2487501
65	0x3e38745e	0.1801314
66	0xbe429b84	-0.19004637
67	0xbe3671e5	-0.17816885
68	0xbe9484ea	-0.29007655
69	0x3dbff824	0.09373501
70	0xbe6180c3	-0.22021775
71	0xbe7b487c	-0.2453937
72	0xbe4028e3	-0.18765597
73	0xbe94333f	-0.28945348
74	0xbe741b74	-0.23838598
75	0x3e85b438	0.26114058
76	0x3e277643	0.16353707
77	0x3e84d052	0.25940186
78	0xbe116cf5	-0.1420172
79	0xbdf5ec89	-0.12008006
80	0xbdd260c0	-0.1027236
81	0x3bbb5daf	0.005717955
82	0xbe572eff	-0.21014021
83	0x3d2fcd99	0.042920683
84	0xbe4023a5	-0.18763597
85	0x3d3d7edc	0.04626356
86	0x3e894e72	0.26817662
87	0x3d4a8a99	0.049448583
88	0x3e5aaf50	0.21355939
89	0xbe55848f	-0.20851348
90	0xbd293bd1	-0.04131681
91	0xbe391e2e	-0.18077919
92	0xbd050bc4	-0.032481924
93	0xbdee8427	-0.116463
94	0xbe2a3891	-0.16623141
95	0xbe90caf6	-0.28279847
96	0xbdde5327	-0.10855704
97	0x3d2097d4	0.039207295
98	0xbd52f61e	-0.051504247
99	0xbe8b9b65	-0.27266994
100	0x3e61335e	0.21992251
101	0x3e5e4b91	0.21708514
102	0xbe34bf68	-0.1765114
103	0x3cf3ce9e	0.029761609
104	0x3e47114c	0.19440192
105	0xbe8e59c2	-0.27802855
106	0xbe84733b	-0.25869164
107	0x3e2658c1	0.16244794
108	0xbbbe0292	-0.0057986462
109	0x3dbeeee8	0.093229115
110	0xbdf957fe	-0.12174986
111	0x3d596cd1	0.05308229
112	0x3e46d658	0.19417703
113	0xbd92b05e	-0.071625456
114	0xbdc1abfb	-0.09456631
115	0xbe8ebb42	-0.2787724
116	0xbd390b5d	-0.045176852
117	0x3e3df881	0.18551828
118	0xbe8daa07	-0.27668783
119	0xbcb94429	-0.02261551
120	0x3e5a8838	0.21341026
121	0xbdab21f6	-0.08356087
122	0xbddd87d7	-0.10816925
123	0xbdb4db34	-0.08830872
124	0xbdf2edeb	-0.118617855
125	0x3d0f86ad	0.035040546
126	0xbe905298	-0.28188014
127	0x3de52075	0.11187831
128	0xbd976e44	-0.073940784
129	0xbd18adb7	-0.037275042
130	0xbca1d0e9	-0.019752936
131	0x3e277a08	0.16355145
132	0xbe3a3914	-0.18185836
133	0xbe8867ad	-0.26641598
134	0xbe58db8a	-0.21177498
135	0xbe5bed89	-0.21477331
136	0xbe11f623	-0.1425405
137	0x3e6cc8b0	0.23123431
138	0xbe67ed57	-0.22649132
139	0xbe303a90	-0.1720984
140	0xbe74652d	-0.2386672
141	0xbe169b4e	-0.14707682
142	0xbc06a8f0	-0.008218989
143	0xbe36ce3d	-0.17852111
144	0x3b4aceaa	0.0030945935
145	0x3dcaa035	0.09893838
146	0xbd4c0717	-0.04981145
147	0x3e0159a5	0.12631853
148	0x3d899652	0.067181244
149	0x3e90cd8a	0.28281814
150	0xbc74e42a	-0.014946977
151	0x3e81ecfb	0.25376114
152	0x3e606540	0.21913624
153	0x3e0f513a	0.13995829
154	0x3e29aa38	0.1656884
155	0xbe48c636	-0.19606861
156	0xbe48c994	-0.19608146
157	0x3e0006ae	0.12502548
158	0x3dd9b68a	0.1063052
159	0x3e874606	0.2642061
160	0xbd1c228a	-0.038118877
161	0xbd5c71f3	-0.053819608
162	0x3e4d8585	0.20070465
163	0x3c1ae9c0	0.009455144
164	0x3e8cba54	0.27485907
165	0xbe18eb0f	-0.14933418
166	0xbdc4ba48	-0.09605843
167	0x3c4f41fb	0.012650008
168	0x3e1fe511	0.15614726
169	0xbe836935	-0.25666204
170	0xbda7d5f1	-0.08195103
171	0x3e59b957	0.21262108
172	0x3d79b23d	0.060960997
173	0x3e53f322	0.20698217
174	0xbdcb1a62	-0.099171415
175	0xbe3cfc7f	-0.18455695
176	0xbe4cac6c	-0.19987649
177	0xbe288e03	-0.16460423
178	0xbe614ca6	-0.22001895
179	0x3e1491e9	0.14508785
180	0x3da12972	0.07869233
181	0xbe3fd12f	-0.18732141
182	0x3e896571	0.26835206
183	0x3daab41e	0.08335136
184	0x3ddf2493	0.10895648
185	0xbdfca3f0	-0.12335956
186	0x3e4f8f7b	0.20269577
187	0xbe53791d	-0.2065167
188	0x3e5a879f	0.21340798
189	0xbe22e9e3	-0.15909533
190	0x3dfeab33	0.124349974
191	0xbdd8e941	-0.10591365
192	0x3e42c4c0	0.19020367
193	0xbe7b6e42	-0.24553779
194	0xbd69d0d5	-0.057083923
195	0xbda1d705	-0.0790234
196	0xbe33451a	-0.17506829
197	0xbe13421f	-0.14380692
198	0xbda83fb4	-0.082152754
199	0x3cf8af5b	0.030357054
200	0x3e54cc1f	0.20780991
201	0xbd450f18	-0.048110098
202	0x3e92ee2c	0.28697336
203	0xbe0eaa09	-0.13932051
204	0xbe1a56f6	-0.15072235
205	0xbc7a35fc	-0.01527166
206	0xbd5917c4	-0.05300118
207	0x3dbe7349	0.09299333
208	0x3e8a8100	0.27051544
209	0x3dcd4b71	0.10024155
210	0xbe7adc4e	-0.24498102
211	0xbdccdb2e	-0.10002743
212	0xbd6e3c51	-0.05816299
213	0xbe887f30	-0.26659536
214	0x3db9631a	0.09052105
215	0x3e82d8d8	0.25556064
216	0x3e14e521	0.1454053
217	0xbbbdf6dc	-0.00579725
218	0xbcb6975f	-0.022288976
219	0xbe0c648f	-0.13710235
220	0xbd0538c8	-0.032524854
221	0x3e837760	0.25677013
222	0xbe1a21d1	-0.15051962
223	0x3d3fda42	0.046839006
224	0xbe5bf797	-0.21481167
225	0xbda3f73a	-0.08006139
226	0x3c8ae1c6	0.01695336
227	0xbe62604a	-0.22107044
228	0x3da2e8a7	0.07954531
229	0xbe80b8a0	-0.25140858
230	0xbdf4efa8	-0.11959773
231	0x3e50a0b8	0.2037381
232	0x3e8c9cd8	0.27463412
233	0xbcbb83bf	-0.02288997
234	0xbe5646f0	-0.20925498
235	0xbe7627a3	-0.24038558
236	0xbd9359eb	-0.07194885
237	0xbe18fd13	-0.1494029
238	0x3e6e4fc4	0.23272616
239	0xbe55b733	-0.20870666
240	0x3e347522	0.17622808
241	0x3d640006	0.055664085
242	0xbdb65e0f	-0.08904659
243	0x3e7460d9	0.2386507
244	0x3e26d562	0.16292337
245	0xbc27c4a2	-0.010239752
246	0xbe4b320b	-0.19843309
247	0xbdb079bf	-0.08616971
248	0x3dc1533c	0.09439704
249	0x3e81e1e2	0.25367647
250	0xbdca5664	-0.09879759
251	0xbdf92e45	-0.12167028
252	0xbe92754d	-0.28605118
253	0x3e3844a3	0.17994933
254	0x3e924df9	0.28575113
255	0x3e4e674d	0.20156594

input_features.module_dict.Datum__ludwig.encoder_obj.embed_second.embeddings.weight f4 [60, 10]
0	0xbf17c9a0	-0.5929203
1	0xbd88d5b2	-0.06681384
2	0xbf044561	-0.51668364
3	0x3e8d175e	0.2755689
4	0x3f0d5eb1	0.5522261
5	0xbdac564d	-0.08414898
6	0x3f032720	0.51231575
7	0xbf05cdfd	-0.5226744
8	0xbf1a17c1	-0.60192496
9	0x3edbd370	0.42934752
10	0x3e29f17d	0.16596027
11	0x3e29eed8	0.16595018
12	0x3d527433	0.051380347
13	0x3e8fdbc8	0.28097367
14	0xbe81217c	-0.2522086
15	0x3e0a52c6	0.13508138
16	0xbdbe0080	-0.09277439
17	0x3c6ce72a	0.014459411
18	0x3e4ec41c	0.20191997
19	0xbe56af8a	-0.209654
20	0x3e036167	0.12830125
21	0xbd6f866a	-0.058477797
22	0x3e41ea1d	0.18936963
23	0xbbfbebf8	-0.007688042
24	0x3e14bd7d	0.14525409
25	0x3e8fd380	0.2809105
26	0xbdd615b0	-0.10453355
27	0xbe93a822	-0.28839213
28	0x3e8d653f	0.27616307
29	0xbe250e43	-0.16118722
30	0x3d89064c	0.06690654
31	0x3e3a7475	0.18208487
32	0xbd3a3a16	-0.04546555
33	0x3e6a4d1d	0.22880979
34	0x3e4248cc	0.18973082
35	0xbd716e18	-0.058942884
36	0x3d9d34bc	0.07676074
37	0x3cb5c1de	0.02218717
38	0x3e92a4d0	0.28641367
39	0x3e4f8ed0	0.20269322
40	0xbe47ad4f	-0.19499706
41	0x3ce7166e	0.028208937
42	0x3e21b2b3	0.15790825
43	0x3e653214	0.22382385
44	0x3dccb866	0.09996109
45	0x3dfec6fa	0.124402955
46	0xbd5d68f9	-0.054055188
47	0x3bd014ec	0.0063501503
48	0xbe4f7d94	-0.20262748
49	0x3e76ce06	0.24102029
50	0x3e6c1250	0.2305386
51	0xbe2514e8	-0.16121256
52	0xbe8055a2	-0.25065333
53	0x3e69c712	0.22829846
54	0xbe84db42	-0.2594853
55	0x3e40441b	0.1877598
56	0xbe9201c2	-0.28516966
57	0xbe19459b	-0.14967959
58	0xbdfddd4b	-0.12395724
59	0x3e8ce00a	0.27514678
60	0xbd4aeb9d	-0.049541105
61	0x3e814cde	0.25253958
62	0x3dae3505	0.085062064
63	0x3e913808	0.2836306
64	0x3e4691cc	0.19391555
65	0x3e5ccade	0.21561763
66	0x3e82b04d	0.25525132
67	0xbdb12684	-0.086499244
68	0xbda4daf7	-0.08049577
69	0x3dc131ad	0.09433303
70	0x3e840d3c	0.25791347
71	0xbddca7b1	-0.10774172
72	0xbe6bd302	-0.23029712
73	0xbe6a84ea	-0.22902265
74	0xbe0a818b	-0.13525979
75	0x3d3f592f	0.04671591
76	0xbd0ac53a	-0.033879496
77	0xbd9fe635	-0.078075804
78	0xbe0c277d	-0.13686939
79	0x3d9bf4ec	0.076150745
80	0xbe76f290	-0.24115968
81	0x3e93792b	0.2880338
82	0xbd39b74a	-0.045340814
83	0x3d5fc0ef	0.054627355
84	0x3dc58502	0.0964451
85	0xbde94be1	-0.11391426
86	0x3e6c98d9	0.23105182
87	0xbb0e34c8	-0.002169894
88	0x3cc4bf92	0.02401713
89	0xbe8eb282	-0.27870566
90	0x3d146f35	0.036238868
91	0x3dcdbc6a	0.10045703
92	0x3d271a88	0.040796787
93	0xbcedb072	-0.0290148
94	0x3e625fd7	0.22106872
95	0x3e6d053d	0.2314653
96	0x3e4e6600	0.20156097
97	0xbd5021fc	-0.05081366
98	0x3d4f2728	0.05057445
99	0xbe5152cc	-0.20441741
100	0xbe6070b9	-0.21918
101	0xbd519635	-0.05116864
102	0x3d0609ee	0.032724313
103	0xbe2e9e29	-0.17052521
104	0xbe7a3d00	-0.24437332
105	0x3e0861fb	0.13318627
106	0x3ddb380b	0.10704049
107	0xbe461391	-0.19343401
108	0x3e477ee0	0.19481993
109	0xbe60163a	-0.21883479
110	0x3e62c8b5	0.22146876
111	0x3e1f43dc	0.1555323
112	0xbdcaa486	-0.098946616
113	0x3e8eb633	0.27873382
114	0xbe2853f8	-0.16438282
115	0xbe08f1c4	-0.13373476
116	0x3e6ef31f	0.23334931
117	0xbd9a810c	-0.07544145
118	0xbdf22b30	-0.118246436
119	0x3d398d9c	0.045301065
120	0xbd4aa217	-0.049470987
121	0x3e3cde81	0.18444254
122	0x3e74c32e	0.2390258
123	0x3e055ada	0.13022938
124	0x3d81ac3e	0.06331681
125	0x3d96a0b9	0.07354874
126	0x3bf9c544	0.007622393
127	0x3d0cd424	0.034382
128	0x3bb62bec	0.005559435
129	0x3e4c6dfa	0.19963828
130	0x3e27a6dc	0.16372246
131	0xbcf123f3	-0.029436087
132	0x3de26c0e	0.11055766
133	0x3c84a4b6	0.016191822
134	0x3dd3e2cd	0.10345993
135	0x3e76221d	0.2403645
136	0xbe4bf962	-0.1991935
137	0x3d2a6a49	0.041605268
138	0xbd797ade	-0.06090819
139	0xbe928afd	-0.28621665
140	0xbe91a8e1	-0.28449157
141	0xbd1d0524	-0.03833498
142	0x3e56920d	0.20954151
143	0xbe45ae76	-0.19304833
144	0x3dc34f49	0.09536607
145	0x3e2cc9ae	0.1687381
146	0xbe5a840c	-0.21339434
147	0x3e00c08e	0.12573454
148	0x3d6253b3	0.055255603
149	0xbe88781c	-0.26654136
150	0xbbb8736a	-0.005628993
151	0xbe8cb9c9	-0.27485493
152	0x3e830e73	0.2559696
153	0x3e0c8254	0.13721591
154	0x3de5be1d	0.11217902
155	0x3e662957	0.22476707
156	0x3e654612	0.22390011
157	0x3e94cfc8	0.29064775
158	0x3df7619e	0.12079166
159	0xbe587255	-0.21137364
160	0x3e8b3b1d	0.27193537
161	0x3da68ed3	0.0813271
162	0xbdec5c07	-0.1154099
163	0xbddf25c3	-0.10895874
164	0x3e8c43e5	0.2739555
165	0x3d8531dd	0.06503651
166	0x3e59e7d1	0.21279837
167	0x3cbb0c4b	0.02283301
168	0x3e8a7750	0.27044153
169	0xbe5b5ee2	-0.21422914
170	0x3d8ee727	0.069776826
171	0x3d8f12ec	0.06986031
172	0xbb5d49d4	-0.0033765929
173	0x3e85587b	0.26044068
174	0x3d70cf8f	0.058791693
175	0x3c81ebfe	0.0158596
176	0x3e4c9eed	0.199825
177	0xbcbd5797	-0.023113055
178	0xbc9af5f9	-0.018916117
179	0xbe772b87	-0.24137698
180	0xbafb6a90	-0.0019181538
181	0xbe0bf005	-0.13665779
182	0x3e2d93aa	0.1695086
183	0x3e8266f4	0.25469172
184	0xbe8bd83a	-0.27313405
185	0xbe2da588	-0.16957676
186	0x3e905147	0.2818701
187	0xbdffeb70	-0.12496078
188	0x3e854f5b	0.26037106
189	0x3e9395a1	0.28825095
190	0xbd965ed0	-0.07342303
191	0xbe72aecc	-0.23699492
192	0x3e15e768	0.14639056
193	0x3e084783	0.1330853
194	0x3e8243bd	0.25442305
195	0x3d2d32e3	0.042284857
196	0x3e2303b0	0.15919375
197	0xbe808757	-0.25103256
198	0x3d25444e	0.040348344
199	0x3d8d1e6e	0.068905696
200	0x3e3be653	0.1834958
201	0xbe207b1e	-0.15671965
202	0xbd0f4ed4	-0.034987286
203	0xbe32b2cf	-0.17451023
204	0xbe49c443	-0.19703774
205	0x3df99adf	0.121877424
206	0x3d36dd32	0.044644542
207	0x3dee3eea	0.11633094
208	0xbbda7458	-0.0066667013
209	0xbbebabff	-0.0071921344
210	0xbc382de2	-0.011241408
211	0x3e21f056	0.15814337
212	0xbe4f7110	-0.20257974
213	0x3d81403f	0.06311082
214	0x3e246378	0.1605357
215	0x3e2de10f	0.16980384
216	0xbe0fddba	-0.14049426
217	0x3e68283c	0.22671598
218	0xbe47cd8d	-0.19512005
219	0x3e1c534d	0.15266152
220	0x3e753bf1	0.23948647
221	0x3c19e8fe	0.009393929
222	0x3db7b0ec	0.08969292
223	0xbe8e0073	-0.27734718
224	0xbded2cbc	-0.11580798
225	0xbdeb9342	-0.115026966
226	0xbe8b8f78	-0.27257895
227	0xbd7df196	-0.061997972
228	0x3e514b31	0.2043884
229	0xbce4fe39	-0.027953254
230	0x3e942046	0.28930873
231	0xbe86ef46	-0.26354426
232	0x3def2070	0.11676109
233	0x3e819e5c	0.2531613
234	0x3e91b1e6	0.28456038
235	0xbde89747	-0.11356979
236	0xbe87585b	-0.26434597
237	0xbddc605d	-0.10760567
238	0x3e5e3ddd	0.21703286
239	0x3cd22340	0.025651574
240	0x3e8f45d4	0.27982962
241	0xbe5ae7a7	-0.21377431
242	0xbe3bba2a	-0.18332735
243	0x3e18c94c	0.14920539
244	0x3dcd9689	0.10038478
245	0xbe42c5ac	-0.19020718
246	0x3e8b73eb	0.27236876
247	0xbde73d9b	-0.11291047
248	0xbe792921	-0.24332096
249	0x3da6a19e	0.08136295
250	0xbe27f4cb	-0.16401975
251	0xbe0eaaad	-0.13932295
252	0xbe277a40	-0.16355228
253	0x3da31527	0.07963019
254	0x3e0c73e9	0.13716091
255	0x3e49a200	0.19690704

output_features.module_dict.Schluss__ludwig.decoder_obj.dense.dense.weight f4 [1, 75]
0	0xbdaac826	-0.083389565
1	0x3ebf3c42	0.3735066
2	0x3eaedd66	0.3415329
3	0xbefd98dd	-0.49530688
4	0xbe81d269	-0.25355843
5	0xbeb9bd6a	-0.36277324
6	0x3edacfcf	0.4273667
7	0xbef76895	-0.48321977
8	0x3ef2ca28	0.47419858
9	0xbe6848f2	-0.22684076
10	0x3ee8468b	0.4536632
11	0x3ed0288b	0.40655932
12	0x3ef86e55	0.48521677
13	0x3ea2e78c	0.3181728
14	0xbeb2f36b	-0.34951338
15	0xbec2665e	-0.37968725
16	0x3ea8fdbf	0.33006093
17	0x3e54608e	0.20739958
18	0x3e92ac87	0.28647253
19	0xbeb16b6e	-0.34652275
20	0xbe895098	-0.268193
21	0x3dfb9369	0.12283976
22	0x3ed060f2	0.40698963
23	0xbf0d5fc7	-0.5522427
24	0x3f038a1f	0.5138263
25	0xbe8b7116	-0.27234715
26	0xbee0c3da	-0.43899423
27	0xbec546a6	-0.38530463
28	0xbed8c27e	-0.42335886
29	0xbef292d5	-0.4737765
30	0x3e829345	0.25502983
31	0xbea1d91a	-0.31610948
32	0xbeada99d	-0.33918467
33	0xbe95998e	-0.29218715
34	0xbe5b7eb3	-0.2143505
35	0x3ebbd6f2	0.36687428
36	0xbee414c2	-0.44547087
37	0xbe70031f	-0.2343869
38	0x3e8b75aa	0.27238208
39	0xbebdb411	-0.37051442
40	0x3f02f6f7	0.5115809
41	0xbeda877c	-0.4268149
42	0x3f0267c0	0.5093956
43	0x3efb36de	0.49065298
44	0xbe8e22d6	-0.27760953
45	0x3e810948	0.25202394
46	0xbb205732	-0.0024466035
47	0xbeb0c4e9	-0.3452523
48	0xbf061725	-0.52379066
49	0xbbfeae5c	-0.00777225
50	0x3ec74810	0.38922167
51	0x3c28d48a	0.0103045795
52	0xbf01feda	-0.507795
53	0xbed3189e	-0.4122972
54	0xbef4fc0a	-0.4784854
55	0x3e8deae0	0.27718258
56	0xbf1023f0	-0.56304836
57	0xbf01cc31	-0.50702196
58	0xbeaeb605	-0.34123245
59	0x3da2b9fa	0.079456285
60	0xbe6b00b4	-0.22949487
61	0x3df205e6	0.11817531
62	0x3eeeda4e	0.46650928
63	0x3c4ecdc0	0.012622297
64	0x3ef2e5ad	0.47440854
65	0xbe9651d3	-0.29359302
66	0xbe9fe4ce	-0.31229252
67	0x3ef43574	0.47697031
68	0x3ecb3b77	0.39693806
69	0x3ee5c787	0.4487879
70	0x3ee0145f	0.43765542
71	0x3e1febea	0.15617338
72	0x3ea51204	0.32240307
73	0x3e636727	0.22207318
74	0x3f010214	0.50393796

exp_avg f4 [12, 10]
0	0xb7c20175	-2.312728e-05
1	0xb7b16080	-2.114498e-05
2	0x380237ee	3.1046504e-05
3	0x37835d84	1.5659964e-05
4	0x37bca2ef	2.2487218e-05
5	0xb7de55af	-2.6504362e-05
6	0x37fe5ac6	3.032143e-05
7	0xb7f90420	-2.9685034e-05
8	0x3764005a	1.3589941e-05
9	0xb7edd983	-2.8353888e-05
10	0xb79a2b17	-1.8378296e-05
11	0xb78cd7ab	-1.6789729e-05
12	0x37cf95c8	2.474607e-05
13	0x37509e56	1.2434632e-05
14	0x3795cc57	1.7857337e-05
15	0xb7b0caed	-2.107533e-05
16	0x37caea0e	2.4189267e-05
17	0xb7c67648	-2.3658518e-05
18	0x37331345	1.0673718e-05
19	0xb7bd72a8	-2.2583947e-05
20	0xb786859f	-1.6036267e-05
21	0xb775fb9a	-1.46617185e-05
22	0x37b4f7fc	2.1573149e-05
23	0x3735fd69	1.0847442e-05
24	0x3782c879	1.559056e-05
25	0xb79a390a	-1.8384791e-05
26	0x37b0cde4	2.107671e-05
27	0xb7acfc70	-2.0621548e-05
28	0x371d0451	9.358934e-06
29	0xb7a53024	-1.969195e-05
30	0xb7ea3263	-2.7918437e-05
31	0xb7d62f5f	-2.5532847e-05
32	0x381cc7e8	3.7379476e-05
33	0x379ea79c	1.8913117e-05
34	0x37e3a9c1	2.7139557e-05
35	0xb80622a2	-3.1980344e-05
36	0x381914f3	3.6497553e-05
37	0xb815f361	-3.5751033e-05
38	0x378a91a0	1.6518694e-05
39	0xb80f43cc	-3.4156998e-05
40	0xb7a8b883	-2.011308e-05
41	0xb79a4632	-1.8390918e-05
42	0x37e28db0	2.7007278e-05
43	0x37649bca	1.36261315e-05
44	0x37a419b5	1.9562294e-05
45	0xb7c15e9d	-2.305145e-05
46	0x37dd39fc	2.6372254e-05
47	0xb7d89f7f	-2.5823478e-05
48	0x37465e4c	1.1823675e-05
49	0xb7cee95c	-2.466578e-05
50	0xb81c2dba	-3.7235885e-05
51	0xb80ecdc9	-3.404709e-05
52	0x3850fc6e	4.9826158e-05
53	0x37d3c124	2.5243098e-05
54	0x3817d90d	3.620335e-05
55	0xb832e704	-4.2653657e-05
56	0x384c024f	4.863954e-05
57	0xb847e3c4	-4.765742e-05
58	0x37b9583c	2.2094806e-05
59	0xb83f0251	-4.5540106e-05
60	0xb7da4543	-2.6019878e-05
61	0xb7c77ac1	-2.377981e-05
62	0x3812ab79	3.496881e-05
63	0x3793c160	1.7613813e-05
64	0x37d428b5	2.5291325e-05
65	0xb7fa3487	-2.9826782e-05
66	0x380f4ab7	3.416344e-05
67	0xb80c3a4b	-3.343289e-05
68	0x377f6357	1.5222314e-05
69	0xb805e8db	-3.1926535e-05
70	0xb7dc1140	-2.6234076e-05
71	0xb7c93752	-2.3986828e-05
72	0x3813dcaf	3.525306e-05
73	0x3794db5a	1.7745118e-05
74	0x37d5dee4	2.549537e-05
75	0xb7fc33eb	-3.0064917e-05
76	0x38107c0e	3.444781e-05
77	0xb80d6380	-3.3709686e-05
78	0x378098a2	1.5329864e-05
79	0xb806ff34	-3.2185766e-05
80	0xb794ada1	-1.7723827e-05
81	0xb787e368	-1.6199148e-05
82	0x37c78918	2.3786488e-05
83	0x3749574f	1.2000862e-05
84	0x37907e35	1.7224907e-05
85	0xb7aa662b	-2.0313155e-05
86	0x37c2ea37	2.3235667e-05
87	0xb7becc24	-2.2744825e-05
88	0x372e9da8	1.0407915e-05
89	0xb7b63b89	-2.1723814e-05
90	0xb78c4231	-1.6720123e-05
91	0xb7804042	-1.5288711e-05
92	0x37bc210a	2.2426731e-05
93	0x373e0783	1.13266315e-05
94	0x378856b4	1.6252838e-05
95	0xb7a0b859	-1.915933e-05
96	0x37b7bf2b	2.190432e-05
97	0xb7b3ee23	-2.1449354e-05
98	0x37251034	9.838539e-06
99	0xb7abda3e	-2.0486415e-05
100	0xb7590194	-1.2934575e-05
101	0xb7465fac	-1.1823995e-05
102	0x37920633	1.7407443e-05
103	0x3712c0b4	8.747145e-06
104	0x3752ea7c	1.2571571e-05
105	0xb778cc6e	-1.4829549e-05
106	0x378eb286	1.701085e-05
107	0xb78b96ab	-1.6640251e-05
108	0x36fca697	7.529579e-06
109	0xb785461f	-1.5887488e-05
110	0xb7aa4506	-2.029772e-05
111	0xb79bafac	-1.8559243e-05
112	0x37e44338	2.721102e-05
113	0x3766a5c2	1.3747662e-05
114	0x37a57e56	1.9728363e-05
115	0xb7c31734	-2.3256616e-05
116	0x37def0ae	2.6576537e-05
117	0xb7da50a0	-2.6025169e-05
118	0x37489f99	1.1958088e-05
119	0xb7d08892	-2.4859128e-05

exp_avg_sq f4 [12, 10]
0	0x2ebaeb99	8.500151e-11
1	0x2ec42f67	8.9214684e-11
2	0x2f42bf91	1.7712255e-10
3	0x2e4fde03	4.7263537e-11
4	0x2eaa1bfe	7.7356774e-11
5	0x2f046b49	1.2043445e-10
6	0x2f3e0010	1.7280422e-10
7	0x2f311e16	1.6108745e-10
8	0x2d9f2b92	1.8095556e-11
9	0x2f1c603b	1.4222305e-10
10	0x2ebf02dc	8.686182e-11
11	0x2eca66cc	9.204157e-11
12	0x2f47bc1b	1.8165773e-10
13	0x2e583f05	4.9168686e-11
14	0x2eacff52	7.8670084e-11
15	0x2f0811d3	1.237546e-10
16	0x2f434e4f	1.7762967e-10
17	0x2f35f7a0	1.6549828e-10
18	0x2d9f4898	1.8108445e-11
19	0x2f2049eb	1.4578176e-10
20	0x2e953331	6.784829e-11
21	0x2ea3c53f	7.44742e-11
22	0x2f1ebbd0	1.443674e-10
23	0x2e2db82f	3.9499234e-11
24	0x2e869f17	6.1218745e-11
25	0x2ed6e49c	9.7722025e-11
26	0x2f1b3f4e	1.4119658e-10
27	0x2f105858	1.312811e-10
28	0x2d67cdc3	1.3176518e-11
29	0x2efd9bf9	1.1532814e-10
30	0x2eddc0b1	1.0084145e-10
31	0x2eebce17	1.0723172e-10
32	0x2f65f7c4	2.0915453e-10
33	0x2e7c6eb2	5.7396483e-11
34	0x2ec9689f	9.159006e-11
35	0x2f1dc6f0	1.4349744e-10
36	0x2f604d88	2.0400226e-10
37	0x2f51631b	1.9043649e-10
38	0x2dc166e6	2.1987256e-11
39	0x2f38a5bf	1.6793587e-10
40	0x2eb0ec85	8.045568e-11
41	0x2eb99453	8.439174e-11
42	0x2f38c1f3	1.6803607e-10
43	0x2e459beb	4.4931097e-11
44	0x2ea0e72d	7.317023e-11
45	0x2efaf786	1.1412653e-10
46	0x2f347e5b	1.6415795e-10
47	0x2f284a48	1.5305901e-10
48	0x2d938034	1.6768899e-11
49	0x2f145e98	1.3494128e-10
50	0x2ede9af8	1.0122919e-10
51	0x2eedcafb	1.0813569e-10
52	0x2f673443	2.1027895e-10
53	0x2e7ef5b9	5.797116e-11
54	0x2eca1757	9.1900425e-11
55	0x2f1eac37	1.4431199e-10
56	0x2f616f9c	2.0503282e-10
57	0x2f528381	1.9146108e-10
58	0x2dc42bd6	2.2302087e-11
59	0x2f39b1a9	1.688877e-10
60	0x2f0bb833	1.2707417e-10
61	0x2f11d73a	1.3264137e-10
62	0x2f915155	2.6433136e-10
63	0x2e9bbad9	7.081775e-11
64	0x2efdc019	1.15392314e-10
65	0x2f4623be	1.8020693e-10
66	0x2f8dd9cb	2.5802502e-10
67	0x2f844f36	2.4066943e-10
68	0x2deff87e	2.7281507e-11
69	0x2f699ffb	2.1248063e-10
70	0x2f22a8e7	1.479382e-10
71	0x2f263cd6	1.5119225e-10
72	0x2fa6fd79	3.0375327e-10
73	0x2eb09f53	8.031855e-11
74	0x2f1455d5	1.3491015e-10
75	0x2f646829	2.0773484e-10
76	0x2fa2cfcb	2.9615274e-10
77	0x2f981c1d	2.7668615e-10
78	0x2e11a884	3.3118855e-11
79	0x2f8699f2	2.4483843e-10
80	0x2e82eb38	5.953499e-11
81	0x2e8c406e	6.377908e-11
82	0x2f0976cb	1.2502281e-10
83	0x2e152452	3.3910937e-11
84	0x2e6d1ee2	5.391499e-11
85	0x2ebae849	8.499563e-11
86	0x2f064a33	1.221359e-10
87	0x2ef9e643	1.1364112e-10
88	0x2d56e7d4	1.2215968e-11
89	0x2edc189f	1.0008815e-10
90	0x2e686e79	5.2848812e-11
91	0x2e818bb1	5.891055e-11
92	0x2ef7cf6f	1.1269107e-10
93	0x2e0a8bfc	3.15019e-11
94	0x2e514b07	4.7587736e-11
95	0x2ea89539	7.666263e-11
96	0x2ef27edd	1.1027421e-10
97	0x2ee18a4d	1.02563825e-10
98	0x2d349158	1.0264088e-11
99	0x2ec5d0a9	8.995588e-11
100	0x2ea80b37	7.6417477e-11
101	0x2ebc314f	8.558009e-11
102	0x2f35fe91	1.6552294e-10
103	0x2e46758b	4.5124387e-11
104	0x2e96e84f	6.8624766e-11
105	0x2ef428fc	1.11031156e-10
106	0x2f326bf8	1.6227364e-10
107	0x2f256ff1	1.5046432e-10
108	0x2d6ebc14	1.3570495e-11
109	0x2f10e1e8	1.3176982e-10
110	0x2ea06b74	7.295045e-11
111	0x2eae4b49	7.925977e-11
112	0x2f2a546d	1.5491404e-10
113	0x2e39bd52	4.223228e-11
114	0x2e908c97	6.5733356e-11
115	0x2ee6b9fe	1.0492228e-10
116	0x2f26b563	1.5162054e-10
117	0x2f1b27aa	1.411126e-10
118	0x2d791219	1.415803e-11
119	0x2f0845bc	1.2393903e-10
