my-dagster-project/results/api_experiment_run_0/model/training_checkpoints/best.ckpt (torch, 84418 bytes, 24 tensors)

input_features.module_dict.Datum__ludwig.encoder_obj.embed_month.embeddings.weight f4 [12, 10]
00000000: 2919 053f 81df e2bd f46b a63d c4ec 77be
00000010: d117 863e e74b f73e 0838 d2be 3205 fa3e
00000020: d4a5 e33d 4ba6 d73e a58e b43e 72fb fa3e
00000030: bce8 aabe cf46 373e 759b 50be 03ad 7b3c
00000040: 6df0 09be 67a6 ef3c b699 97be d373 6a3d
00000050: deac d73e c7ea bfbe 8262 9abe 3a6c 32be
00000060: fd5e d0be 5ec6 e23d b170 14bf 89b2 0c3f
00000070: 0cb5 edbe 2010 fa3e 3919 2a3f 061f c03e
00000080: d297 78be ee4a e6be ba5a 23be 103b 1f3f
00000090: f2c6 38bf 4f11 303f 992d 2fbf 66f4 453f
000000a0: 969e c73f 7828 af3f 9a66 a7bf 9e6d 42bf
000000b0: 4962 78bf a401 ad3f 668b b0bf c328 053f
000000c0: fbae a1bf e925 243f 26e8 e33e 56ca 063e
000000d0: 9409 553e 72a9 453e cfe9 4abd 3870 d23e
000000e0: cc4e c0be e463 593d 2e31 abbe 54dc 423e
000000f0: b8c1 0abe 5886 273e f7da 0abe b23c e53e
00000100: 0ab2 bfbe 5de2 93be e787 b0be 6ae4 003f
00000110: 307b 3e3e 1cd6 083f cf84 6e3d aa71 7dbd
00000120: dc99 62bf 7629 4abf 8641 95be dfbe 283f
00000130: 2a5d 24bd ac7f 4b3e 9bc6 4cbf 978d 3f3f
00000140: a236 1bbe 58bc ab3e 8c11 33be 6ed7 943e
00000150: 67de 00bf 2623 63be c402 d53d e106 363e
00000160: cd3a 0dbe f9db c53e 1ab2 943e 255b f8be
00000170: 44c3 45be 7377 193f 561e fabd 999f 8abe
00000180: bf66 ddbe c60e b6be 305f 863e 5745 05be
00000190: 8e8a 1bbd 89f9 a13e 5472 2dbf d924 3abf
000001a0: 9ce3 1fbf 41ff 07be 7e85 27bf 8624 573f
000001b0: 06bc 49be c32e f73e 46bd c3be ed65 8dbe
000001c0: 0443 88be 7a15 dc3c d5f4 19bf 2eef 0bbe
000001d0: f910 d1be 4db6 df3d 10d8 7ebe cfe7 a53d
0.51991516 -0.11077786 0.08126059 -0.24211413 0.26190045 0.48300096 -0.41058373 0.4883209
0.111156136 0.4211906 0.3526508 0.49019963 -0.33380687 0.17898105 -0.20371802 0.015361073
-0.13470621 0.029254152 -0.2960946 0.057239365 0.42124075 -0.37483808 -0.3015328 -0.17424098
-0.4069747 0.11072992 -0.57984453 0.54959923 -0.4642719 0.48840427 0.66444737 0.3752367
-0.24276665 -0.44979042 -0.15952578 0.621995 -0.72178566 0.6877641 -0.6842895 0.7732605
1.5595272 1.3684225 -1.3078187 -0.7594851 -0.9702497 1.3516126 -1.3792541 0.5201532
-1.2631525 0.64120346 0.44513053 0.13163123 0.20804435 0.1930292 -0.049539384 0.4110124
-0.37560117 0.05307378 -0.3343596 0.19029361 -0.1355046 0.16359842 -0.13560091 0.4477287
-0.3744052 -0.2888364 -0.34478685 0.5034853 0.1860168 0.53451705 0.058232125 -0.061875977
-0.8851602 -0.78969514 -0.29151553 0.65916246 -0.04012791 0.19872922 -0.7999055 0.74825424
-0.1515756 0.33542132 -0.17487162 0.2907061 -0.5033936 -0.22181377 0.10400918 0.17776062
-0.13791962 0.38644388 0.2904213 -0.48507038 -0.19312769 0.5994789 -0.12212817 -0.27074888
-0.43242452 -0.35558146 0.26244497 -0.13014732 -0.037973933 0.31635693 -0.67752576 -0.72712475
-0.6245668 -0.13280965 -0.6543807 0.84040105 -0.19700631 0.48277864 -0.38230342 -0.27616826
-0.2661363 0.02686571 -0.6013921 -0.13665459 -0.40833262 0.10923443 -0.24887109 0.081008546

input_features.module_dict.Datum__ludwig.encoder_obj.embed_day.embeddings.weight f4 [31, 10]
00000000: 58e3 94be ce26 95be 4544 88be 890a 0ebe
00000010: ead4 9ebe 8f7b a03e 0c23 02be 208c bb3e
00000020: f237 f73d 6d92 aabe c9e6 e03e 9926 a03d
00000030: 4aec c23c 6f5d 09bf f1de 15bf 3d39 9f3e
00000040: 7ae5 903d e662 cc3e eeeb 06bf 405e 5f3d
00000050: 7faf 91be 8b48 7ebd 3210 943d a6e1 1c3e
00000060: 668f 8b3e 1801 be3e 28d0 a3be 2382 253e
00000070: 3115 4cbe 708d c1bd dc2d e43d 51e3 403f
00000080: 8f22 e83d 4dda 60be dd1b 90be dee9 0b3f
00000090: 629d 2f3e ef01 513f 950a b3be 0d66 cabe
000000a0: dbf6 3fbd 6228 eb3e 9f6b 6b3e fb92 01bf
000000b0: 7cc1 733c a39d cc3e 1fcd 713d e127 303e
000000c0: 784a b4be 1b77 08be 81a2 b83d bb11 d3bc
000000d0: 0042 5e3d 17aa ffbe 8071 9bbd fdc3 023f
000000e0: b069 43be d3dd af3e 0d84 b5bc b684 2abe
000000f0: 3a00 b13d d198 da3e 7f2b d43e ab70 ebbd
00000100: ba2c a2be 598a 163e e4a0 6e3e 9cac 6a3e
00000110: 7fdd bebe e333 08bd 2771 253f 825f 913e
00000120: 8cc2 643e 65a5 b3be 70ee bcbe c154 dd3e
00000130: 55fa ca3e 16cc 303d 3124 febe 53c5 53bd
00000140: 2ea7 b03e e303 3d3e 7019 16bd 7dae edbe
00000150: e502 0fbf 09b3 cf3d 6e8f 9a3e a540 013f
00000160: f873 6fbd be09 16bf 8b63 8fbe 6a7c d1bd
00000170: e9c6 a23e 074f 943d a95b afbd 7906 0c3e
00000180: 0833 5ebe 67bc 64be 037a 953e e79f 37be
00000190: c274 153d cf17 84be ddff ba3e 9a7b 0c3e
000001a0: d1bf 95bb 8cea fbbd 2f2d 93be 4f53 f2bd
000001b0: 98b2 063e 3dd4 b03b 72ed 0d3f 0993 e23e
000001c0: c837 a53e de43 88be 476c 0abf b789 8abd
000001d0: 70d3 1bbe 2da8 ea3e b811 eabe 4be2 b5be
000001e0: 84e7 6c3d 98b3 583e 9016 8cb9 5f60 10bf
000001f0: f84d 39be a83c 3d3e 171c f93e 1316 633e
00000200: 09fb 16bf 27c7 c9be 2237 32be f9d2 cfbd
00000210: 4868 b5be f8d5 2b3e 641d a0be a9dc 713e
00000220: 2d6b 253e 4a0c b73e b443 adbe 5736 523e
00000230: af11 3d3e 4f6a 033f 1f0f 383f 8bdf e6be
00000240: 97d2 c4be 993a 973e 9131 963c 282d 1c3f
00000250: 5cac 47bf 95d6 37be eacf d83d 7439 3e3e
00000260: 4e2a 8abe a92b 36be 6e3b 633e c7a7 623d
00000270: a3b2 13bf fc39 4fbe b42b a6bd 2a27 c63d
00000280: 911a 9b3d 0964 ea3d 8d0a 0e3e f7b5 29bf
00000290: 2d28 923c 1310 1b3f 8631 353e bb0c 963e
000002a0: 1cd6 e8be 8594 28bf a041 cebe d0ee e83d
000002b0: 1d09 7fbe b61e 7fbe 284b 1dbd f918 06be
000002c0: 15e4 2dbe 6049 4e3d 5378 acbd fb7e 15be
000002d0: 8fc5 b1bd 9d42 55be f2bb d23e caea 96be
000002e0: 63be e6bc 0934 fabb f9ba cf3d a98c 053f
000002f0: 77ea 2f3d 701e fabe 05d4 1e3f 9204 573f
00000300: 8d8e 103f e108 74be 43b3 dfbd 57de dd3e
00000310: d4fd 063f b178 8a3e d8a5 14bf aa3b 6cbe
00000320: 36da fb3e 3a6f 743d b356 6abc d403 17bf
00000330: b419 32bf 799d 973c 5228 333e c1b3 1c3f
00000340: daf7 87be a4bb 21bf ce0b 3fbe ea9a a03e
00000350: 8b54 2dbe c46d 57be c949 f43c 78e0 ebbc
00000360: d326 5e3d f54d 233e 014d 80be a9f9 bdbe
00000370: d2bf 15bf 29e6 0bbf 75dc e5be 2d5f 113f
00000380: 69ef 603c f438 edbe 6aff 25be 7d8e 84bd
00000390: 3fc6 d43e 9b42 f83e 3048 b53e a764 69be
000003a0: 146e 2f3e b7e1 5e3d 6b00 51be ee93 5fbd
000003b0: 17c8 f63e 1cde 933d af23 cbbe 51fe 09bf
000003c0: 53c3 a8bc 915c 0a3e 8ba1 343d 4624 8c3d
000003d0: 909c 93be 042d bebe 338e 68bd cbf4 bf3e
000003e0: 2c4a 663e d555 71be 756d 863e 4aeb 1c3d
000003f0: 609f 003e aa13 8abe 01b5 fbbd da8c 263f
-0.290797 -0.29131168 -0.26614586 -0.13871206 -0.31021816 0.31344268 -0.12708682 0.36630344
0.120712176 -0.3331484 0.43926075 0.07819862 0.023794312 -0.53658193 -0.58543307 0.31098357
0.07075019 0.39919204 -0.5270375 0.054533243 -0.28454205 -0.0620809 0.072296515 0.15320453
0.27257842 0.3711021 -0.31994748 0.16162924 -0.19929959 -0.09450805 0.111415595 0.7534686
0.113347165 -0.21958275 -0.28146258 0.5465373 0.1714988 0.81643575 -0.3496901 -0.39530984
-0.04686628 0.45929247 0.22990273 -0.506149 0.014877673 0.39964017 0.05903351 0.17202713
-0.35213065 -0.13326685 0.0901537 -0.02576529 0.05426216 -0.49934456 -0.07590008 0.51080304
-0.19083285 0.34348926 -0.022157693 -0.16652188 0.08642621 0.42694715 0.41439435 -0.11496099
-0.3167475 0.14701213 0.23303562 0.22917408 -0.37278363 -0.033252608 0.6462578 0.2839318
0.22339839 -0.35087124 -0.36900663 0.43228725 0.39644113 0.04316338 -0.49636987 -0.051701855
0.34502548 0.18458514 -0.036645353 -0.46422186 -0.5586379 0.1014157 0.30187553 0.50489265
-0.058460206 -0.58608615 -0.28005633 -0.10228808 0.3179238 0.07241636 -0.08562405 0.13674344
-0.21699154 -0.22337495 0.2919465 -0.17932092 0.036488302 -0.25799415 0.36523333 0.13719025
-0.0045699854 -0.12300596 -0.2874541 -0.11832296 0.13154066 0.0053963945 0.5544044 0.44252804
0.3226912 -0.2661428 -0.5407147 -0.06764548 -0.15217376 0.45831433 -0.45716643 -0.3552421
0.057837978 0.2116226 -0.0002671969 -0.5639705 -0.18096149 0.1848017 0.48654243 0.2217639
-0.589768 -0.39409754 -0.17403844 -0.10147662 -0.35431123 0.16780841 -0.31272423 0.23619331
0.16154166 0.35751563 -0.33840716 0.20528542 0.18463777 0.5133409 0.7189807 -0.45092425
-0.38441917 0.29536894 0.018334182 0.610064 -0.77997375 -0.1795295 0.105865315 0.18576604
-0.269854 -0.17790093 0.2219064 0.055335786 -0.57694453 -0.20236963 -0.081138045 0.09675439
0.075734265 0.114448614 0.13871212 -0.6629328 0.017841423 0.605714 0.17694673 0.29306588
-0.45475852 -0.6585162 -0.40284443 0.11373675 -0.2490582 -0.24914059 -0.038401753 -0.13095464
-0.16981538 0.050362945 -0.084213875 -0.1459922 -0.086802594 -0.20826192 0.41159016 -0.29476005
-0.028166955 -0.0076355976 0.10143084 0.52167755 0.042948212 -0.48851347 0.62042266 0.8399135
0.56467515 -0.23831512 -0.10922863 0.43333694 0.5273106 0.27045205 -0.5806556 -0.23069635
0.4918992 0.059676386 -0.014302897 -0.58990216 -0.6957047 0.018507706 0.1749585 0.6121178
-0.26556283 -0.6317694 -0.18656847 0.3136819 -0.16926782 -0.21037966 0.02982034 -0.028793558
0.054236244 0.15947707 -0.2505875 -0.37104538 -0.5849582 -0.5464807 -0.44894758 0.5678585
0.013728955 -0.46332514 -0.16210714 -0.0647249 0.415575 0.48488316 0.35406637 -0.22792302
0.17131835 0.054414477 -0.20410316 -0.054584436 0.4819953 0.072200984 -0.39675662 -0.5390368
-0.02060095 0.13511874 0.044099372 0.06842856 -0.28830385 -0.3714372 -0.056776237 0.3749145
0.22489232 -0.23567899 0.26255384 0.038310327 0.12560797 -0.26968127 -0.12290383 0.6505867

input_features.module_dict.Datum__ludwig.encoder_obj.embed_weekday.embeddings.weight f4 [7, 7]
00000000: 64f2 013f 6297 2cbe 7f6c b33d b73f 9c3d
00000010: daf6 ccbe 9d02 efbe deda 94be 9717 debe
00000020: 64c9 e53e 1a94 163d 865e ee3e 4703 1b3f
00000030: 1485 8fbe 765d fcbe 7f07 5d3f 7036 863f
00000040: e312 82bf 81df ec3e bb09 a0bf 82fb 87bf
00000050: 0eba cdbe 59b6 f93e 6a32 213f bea1 26bf
00000060: 82c5 893f a45f f3be d70a 5fbf 8835 06bf
00000070: 8fff 683e e5dd fb3e 729c 34bf a44b 003f
00000080: fa02 2abf 1e30 4dbf a028 22bf 6ca0 213f
00000090: 4b44 0f3f 5013 163f 89c1 c43e ae36 fd3e
000000a0: da74 b3bd 466d b8be ea79 a73e 96af adbe
000000b0: 0e34 e2be 0a12 56be b0ae 0c3e 088d ac3e
000000c0: 1f30 82be
0.50760484 -0.16854623 0.08760928 0.0762934 -0.40032083 -0.4668168 -0.29073232 -0.43377373
0.4488021 0.036762334 0.4655649 0.60551876 -0.28031218 -0.49290055 0.86339563 1.0485363
-1.0162014 0.4626427 -1.250297 -1.0623629 -0.4018101 0.48771933 0.6296755 -0.6509055
1.07634 -0.47533906 -0.87125915 -0.5242543 0.22753738 0.4919273 -0.70551217 0.5011542
-0.6641079 -0.80151546 -0.6334324 0.6313541 0.5596358 0.5862322 0.38428906 0.4945578
-0.08762522 -0.3602087 0.327102 -0.33923024 -0.4418034 -0.20905319 0.13738513 0.33701348
-0.25427338

input_features.module_dict.Datum__ludwig.encoder_obj.embed_yearday.embeddings.weight f4 [366, 10]
00000000: 7744 98bd 9d97 8b3c e17d 98bd 7d6f a8bd
00000010: 44da 863d 29d6 adbc 8b67 ec3d eeaa fb3d
00000020: 3cc3 1a3d cd12 323d 98c0 373e cab6 1f3e
00000030: 2d9b 1dbe d3a6 173e d8bf 4b3e 4150 863e
00000040: 3295 e33d c5fe 50be e0f4 fb3d 88c3 983d
00000050: 9296 27be ed3f b5bd 6f23 973e 5db0 06be
00000060: f5d6 8ebe 9083 85be ee9f 66be 36dd 283e
00000070: 502d 32be 0b10 a1be 9932 f93e b8c7 b33e
00000080: 574e 06bf 5ff8 ad3e 7f7b 0e3f 5ad2 a63e
00000090: fabc 0a3f ddc6 e7be 1842 dd3e b166 053f
000000a0: 7da1 713e fc78 a73e 0e97 16be de53 043e
000000b0: e515 973e b2c3 883e 4a9e 8a3e 1776 69be
000000c0: 89cc 8f3e e120 2d3e 272e 003b a507 0b3e
000000d0: 2452 9b3d 8eb1 023c b772 d0bd 911d 993c
000000e0: ff87 97bd a9c0 b33d 0e63 70bd 7c59 92ba
000000f0: 29ae 3ebe b5e6 04be 7315 933e 256d 19be
00000100: f2ae afbd 4360 8bbd c93c 83bd 8da8 ea3d
00000110: ffb3 3cbe f3de e3bd bb6a dc3e a478 063f
00000120: b905 fbbe bf2f c13e cc73 043f 5da3 f83e
00000130: 5a63 053f 9c75 afbe 4502 0d3f a589 133f
00000140: 84ff fa3b 6134 ddbd 1b3e b2bd d290 a6bd
00000150: fa95 e4bd 7d23 84bd 7491 f2bd 860b edbd
00000160: f4e4 98bd e7a2 03be a34b fcbe 19e7 b8be
00000170: 65ed 093f 0170 ecbe c935 e8be f172 b9be
00000180: 9e59 febe 61fe b73e 1546 abbe 5c5c 0dbf
00000190: a105 de3e 5e11 083f 4e46 cabe 790b e73e
000001a0: a9ab af3e ea74 d63e d23a d93e d63c c7be
000001b0: 632f ed3e c1b9 053f 45ea 023f b9af 1a3f
000001c0: 2acc 2bbf 40ef 013f 3cc7 183f 2282 003f
000001d0: d122 343f adb9 17bf 7805 083f ddb4 2c3f
000001e0: d4d7 a5be 1a7c 80be 2f8a 3f3e c097 a1be
000001f0: 450f 92be 7521 6dbe 6192 f0bd 2cf1 a73e
00000200: 3d4e f8bd af35 93be f52e ad3d ba29 8e3e
00000210: de1a f3bd e065 2a3e 4283 3a3e 6bb8 7d3d
00000220: dca1 ef3d 36cd 38bd 8e73 0a3e 7f52 1c3e
00000230: 071d 15bf aa3f 0bbf 43dd f83e 76cc 0fbf
00000240: fb31 fdbe 3408 e1be b61a 1ebf 97f7 043f
00000250: 889b 0ebf f1f7 0dbf f056 9c3d ca56 053e
00000260: 9a79 73bd 610d d3bc 3e13 b0bd 9b7e 2cbd
00000270: 794b b4bd 764b 69bd 554b 643d 22a7 c3bd
00000280: 5ca2 eabe 7920 f6be e514 ec3e a15a 23bf
00000290: 854c 07bf 97b1 1cbf 18b2 19bf cc76 033f
000002a0: 3ce4 eabe 25f6 29bf 4962 063f 8fad da3e
000002b0: 5377 c9be b446 043f 5959 cc3e 2d8e b33e
000002c0: 3377 cf3e de26 a3be 2735 a53e 9bd9 e33e
000002d0: 5962 b63e 40a6 0a3f 1231 dcbe 24b1 f53e
000002e0: ce13 083f ca4c f53e 69a8 0b3f 4dd7 13bf
000002f0: c721 ea3e fecd 073f b661 67bc f962 97bd
00000300: d2cd 723d 488a 52bd e147 2ebe 2098 36be
00000310: 2b46 8abe 9ef7 fc3d 0878 46bd c55b 0fbe
00000320: c430 b4be b132 70be 2b57 7b3e 7311 2abe
00000330: a5a6 c6be 0372 a6be 8480 d1be e75f 6b3e
00000340: 0548 71be c878 29be 109c d63e c74d 053f
00000350: 2766 bdbe 31ff ef3e 9134 ff3e 848f 013f
00000360: 5c7b a73e 7131 91be 3877 f13e 7443 ab3e
00000370: 4bd9 2c3e 8995 fe3d c531 46be 3091 fd3d
00000380: 76f9 8f3e 3dd8 883e 6553 ea3d 0863 47be
00000390: e7d0 5d3e 366b 8f3e d263 963e b48e c13d
000003a0: ad1b d9bd f70f a73e f2cf 8a3e 6886 db3d
000003b0: 3a38 363e 7ed0 83be 1aeb 3e3e 2f93 953e
000003c0: 0c4b 66be 5bde 28be adb8 713e d889 71be
000003d0: 098c 68be 2948 c8be 25aa d3be c8d1 553e
000003e0: 513b 38be be40 d3be 2aa4 923e 8903 ef3e
000003f0: a1fe a4be 7750 fc3e 85cb 983e c16e 9a3e
-0.07434934 0.017040068 -0.074458845 -0.0822439 0.065845996 -0.021220284 0.11543187 0.122884616
0.037783846 0.04347496 0.17944562 0.15597072 -0.15391226 0.14809732 0.19897401 0.26233104
0.11112441 -0.20409687 0.123025656 0.074591696 -0.16366032 -0.088500835 0.2951922 -0.13153215
-0.27898374 -0.26076937 -0.22521946 0.16490635 -0.17400098 -0.31457552 0.48671415 0.3511331
-0.5246329 0.33978555 0.5565719 0.3258236 0.54194605 -0.45268908 0.43214488 0.5210982
0.23596759 0.3270949 -0.1470606 0.12922618 0.29508892 0.26711804 0.2707389 -0.22798954
0.28085735 0.16907074 0.001955876 0.13577135 0.075840265 0.007976903 -0.1017813 0.018690856
-0.07398986 0.087769814 -0.058688216 -0.0011165584 -0.18621124 -0.12978633 0.28727302 -0.14983042
-0.0857829 -0.0680547 -0.06408078 0.1145793 -0.18428038 -0.111265086 0.4305018 0.52527833
-0.49027804 0.3773174 0.5173919 0.48562136 0.52104723 -0.34269416 0.5508159 0.57631904
0.0076598544 -0.10801006 -0.08703252 -0.08133091 -0.11161418 -0.06452081 -0.11844149 -0.115744635
-0.07465544 -0.12855111 -0.49276456 -0.36113814 0.5387786 -0.46179202 -0.45353535 -0.36220506
-0.49677747 0.35936263 -0.33451906 -0.55219054 0.4336367 0.531515 -0.39506763 0.4512594
0.34310654 0.41886073 0.4242769 -0.38913602 0.46325216 0.5223656 0.51138717 0.6042438
-0.67108405 0.5075569 0.5967901 0.50198567 0.70365626 -0.59267694 0.53133345 0.67463475
-0.32391226 -0.25094682 0.18705057 -0.3156109 -0.28527275 -0.23157294 -0.117466696 0.32801187
-0.12124298 -0.28751895 0.08456222 0.2776621 -0.11870359 0.16640425 0.18214133 0.061943453
0.11700794 -0.04511758 0.13520643 0.15265845 -0.5824742 -0.5439402 0.4860631 -0.5617136
-0.49452195 -0.4395157 -0.6175951 0.5194029 -0.5570607 -0.55456454 0.076337695 0.13021389
-0.05944214 -0.025763215 -0.0859742 -0.042112928 -0.08803458 -0.05695673 0.055735905 -0.095533624
-0.45826995 -0.4807165 0.4610969 -0.63810164 -0.52851135 -0.6120848 -0.60037374 0.51353145
-0.45877254 -0.6639121 0.5249372 0.4271054 -0.3934885 0.51670384 0.39911917 0.3506941
0.4052063 -0.3186559 0.32267115 0.44501957 0.35621908 0.5415993 -0.43006188 0.4798671
0.5315522 0.47910148 0.5455385 -0.577504 0.45728895 0.53048694 -0.014122417 -0.073919244
0.059278317 -0.051401407 -0.17019607 -0.17831469 -0.2700666 0.12351917 -0.048454314 -0.13999851
-0.35193455 -0.23456837 0.2454497 -0.16608219 -0.38799015 -0.3250886 -0.40918362 0.22985803
-0.2356263 -0.1654998 0.4191594 0.52071804 -0.36992 0.46874383 0.49844792 0.5060961
0.32711303 -0.28358033 0.4716127 0.334499 0.16879766 0.12430865 -0.19354923 0.12381208
0.2812001 0.26727477 0.114416875 -0.19471371 0.21661721 0.28011483 0.29373032 0.094510466
-0.10600982 0.32629368 0.27111775 0.10718995 0.17794886 -0.25745004 0.18644372 0.29213855
-0.22489566 -0.16491072 0.23605604 -0.2358774 -0.22709669 -0.39117554 -0.41340747 0.20880806
-0.17991377 -0.41260332 0.28640872 0.46682385 -0.32225516 0.4928014 0.29842773 0.30162624

input_features.module_dict.Datum__ludwig.encoder_obj.embed_hour.embeddings.weight f4 [24, 10]
00000000: 8629 083f 10f2 883c 12a5 cc3c 30ff 6bbe
00000010: 2eff 7d3e f03a bb3e ad92 d2be a2b1 61bd
00000020: 4853 ad3e 3fff 54be d25f 9ebe 9d3d 0abe
00000030: 74bf 6d3c cd9c a0bd 4165 93be 71bf 86be
00000040: c59f e83d bb93 933e 63aa c33e 4f7c 42bd
00000050: fe81 253e ced2 aabe a938 653e dc85 cd3e
00000060: c301 603e 4e14 2abe 7d5c af3e 48b3 cbbe
00000070: 5679 4ebd 622b d5bd c189 d6be 3a66 75be
00000080: dab4 9cbe 753b e73d 2620 0fbd 5c90 453e
00000090: 1b89 c1bd ec6a b13e 7ce5 423d 934a b23e
000000a0: 64a8 ae3e cb66 b6be 8971 90be de8c 813e
000000b0: 5334 cb3e 9893 b7be d177 c93b d161 25be
000000c0: 207e ca3e b1ac b23e ba89 9c3e ba7d 673e
000000d0: 6a66 21bd 1c77 c63e d74b 49be b615 aa3c
000000e0: 395e e2bd 81e7 9cbe 95d9 4bbe 9598 d03d
000000f0: 0485 19bd 5d7b 8ebe 17c0 5abd a395 943d
00000100: ae7b 96be 77e5 813e 69dc b6be afb2 833b
00000110: 5ff1 afbe bcf3 c1be 5cbe 55bd 3a34 c33e
00000120: c953 cb3e fa9a 1a3e ebb5 a63e 5526 6bbe
00000130: 322e 723e 773c 833e 098e cdbe 2ad3 a4be
00000140: 5bd7 393e f0ff 1e3d dd95 91be 16ba a9be
00000150: 6072 9b3e bcf7 3b3d e1b6 73ba 8aec cfbe
00000160: 5cb6 bc3e c92e 8ebe 37ad 3f3e 08e6 4ebd
00000170: c646 603c 4937 533e e82e e5bd d95c f1bd
00000180: f275 ab3e 59d0 a4be 786d 3f3e c906 debd
00000190: 69bb 0fbe f3fa 8f3e df3e 913d db3e c8be
000001a0: 0234 c03e 1d73 55be a8ef b93e 5001 07be
000001b0: dfb6 d13e a3cc fd3d 4b3e a6bc 6735 243e
000001c0: c507 56bc f95a 55be 044e 6b3e d181 8b3e
000001d0: 0690 57bd b34f ca3e 6c8b da3c c87e 63be
000001e0: 2f6b 6abe d1b6 903e 4041 2ebe 17d9 873e
000001f0: 26ee d0be 5f16 6d3c 559c 94be 0697 183e
00000200: 7bac ae3e 8446 293e 0ee7 13be 8dc5 c9be
00000210: 10d0 4bbe 1bb8 7dbe f362 cd3e cf48 67be
00000220: 3f53 263e 4ba9 ac3e 2115 1b3e 90bc bcbe
00000230: d675 43bd 4e58 ffbd a294 8a3e ba67 21bd
00000240: dc82 b5bc e854 bf3e f2b9 cc3d c967 473e
00000250: 7279 0abe a0a8 8c3e 2066 773d 5cd1 acbd
00000260: 23cc a53d 2e4d a9be 4013 7d3c 9e47 453e
00000270: 9566 c9be e07e 64be 0fc1 863e c315 1c3c
00000280: 5b70 6abc 7697 2f3d 2511 41be 68db b13e
00000290: c59b 2abd b1a0 1cbe 5b6f 623e 1e06 b3be
000002a0: f6b0 9ebd 446c 2d3d b07f 05be a91e 6a3e
000002b0: 43ae b7be 3a07 f8bd 41cc 34be 0106 c73e
000002c0: 42ac 2b3e a671 a0be 98b7 263e 0ef6 11bc
000002d0: 83e4 c43e b464 6d3e 973a 7bbe 0bb9 bf3e
000002e0: 04e0 99bd dde7 c3bd aea1 003e f4af d53e
000002f0: 26cb 013e 9986 cfbe de51 09be 4e48 c83e
00000300: ff9c 17be 5ff3 4ebe 9a70 abbe 1675 6dbe
00000310: f330 6bbe 7478 cd3d c1dc 2b3e 1845 cd3e
00000320: f726 8d3e 6a65 cb3b 9efc 673e 9ee0 753e
00000330: b583 b9be 490f 593e 9b21 93be 3a17 a63e
00000340: 0d19 3bbe 2982 b23d dc77 92bb 9b92 473e
00000350: f6d0 853d 2805 9cbe 9a41 2e3e ddc0 7d3e
00000360: e003 60be 9a86 8bbe 1975 92be b24c 51be
00000370: 37ef 58bd a3a7 003d 622d 42bb 6c8c e3bd
00000380: b778 853e 7edd b53c ebc6 79be d7af e3bd
00000390: dce8 7cbe c0c1 17be 8ae3 cabe 7a53 963d
000003a0: 7ca7 a6be 965f 263e 2657 933e 9601 a0be
000003b0: 1b03 63be e9f1 a9be ec98 e53d 5178 a63d
0.5318836 0.016716987 0.024981055 -0.23046565 0.24804375 0.36568403 -0.4112753 -0.055101044
0.338526 -0.20800494 -0.3093248 -0.13500066 0.014510978 -0.078424074 -0.28788188 -0.26317933
0.113585986 0.28823647 0.38215932 -0.04748183 0.1616287 -0.33363956 0.22384895 0.4014119
0.21875672 -0.16609308 0.3425025 -0.39785218 -0.050408684 -0.10408665 -0.41901973 -0.23964778
-0.3060673 0.112906374 -0.03494277 0.1929335 -0.09449979 0.34651887 0.047582135 0.3482252
0.34112847 -0.356253 -0.2821162 0.25302786 0.39688358 -0.35854793 0.0061483164 -0.16150595
0.3954935 0.34897378 0.30573827 0.22606555 -0.03940431 0.38762748 -0.19657837 0.020762306
-0.11053128 -0.30645373 -0.1990722 0.10185353 -0.03748037 -0.27828494 -0.053405847 0.072551034
-0.29391235 0.2537038 -0.35715035 0.0040191035 -0.3436384 -0.37881267 -0.052183494 0.38125783
0.3971236 0.15098181 0.32560667 -0.22963841 0.23650435 0.2563207 -0.40147427 -0.32192355
0.18148558 0.0388183 -0.2843465 -0.33149785 0.303607 0.045890555 -0.00092969654 -0.40610152
0.3685788 -0.2777007 0.1871842 -0.050512344 0.013688749 0.20626558 -0.11190587 -0.117852874
0.33488423 -0.32190207 0.18694103 -0.10841138 -0.14036335 0.28121147 0.0709207 -0.39110455
0.3753968 -0.20844693 0.36315656 -0.13184094 0.40959832 0.12392547 -0.020293375 0.16035996
-0.013063376 -0.20835485 0.2297898 0.2724748 -0.052627586 0.3951393 0.02667781 -0.22216332
-0.2289245 0.28264478 -0.17017078 0.26532814 -0.40806693 0.014470666 -0.29025522 0.14901361
0.34115967 0.16530806 -0.14443609 -0.39408532 -0.19903588 -0.24777262 0.40114555 -0.22586368
0.16242693 0.3372291 0.15144779 -0.36862612 -0.0477198 -0.12468015 0.27066523 -0.039405562
-0.022157125 0.37369466 0.09996404 0.19473185 -0.1352289 0.274724 0.06040013 -0.0843837
0.080955766 -0.33066696 0.015446484 0.19265601 -0.39336076 -0.22314024 0.26319167 0.009526673
-0.014309014 0.042869054 -0.18854196 0.34737706 -0.04165246 -0.15295674 0.22112791 -0.34965605
-0.07748596 0.04233958 -0.1303699 0.22863258 -0.3587514 -0.12110753 -0.17656042 0.38871768
0.1676493 -0.31336707 0.16280973 -0.008908762 0.3845559 0.23182946 -0.24534069 0.37445864
-0.07513431 -0.09565709 0.12561676 0.41735804 0.12675151 -0.40532377 -0.13410136 0.39117664
-0.14805983 -0.20210026 -0.33484346 -0.23189196 -0.22967891 0.1003274 0.1678343 0.40091777
0.2756879 0.006207158 0.2265496 0.24011466 -0.36233297 0.21197237 -0.28736576 0.32439595
-0.18271275 0.08716232 -0.0044698548 0.1948952 0.06533997 -0.30472684 0.17017213 0.24780603
-0.21876478 -0.2725113 -0.28604963 -0.20439413 -0.052962508 0.03140987 -0.00296291 -0.11110768
0.2606866 0.022200342 -0.24392287 -0.11117523 -0.24698204 -0.14820004 -0.39626724 0.07340141
-0.32549655 0.162474 0.28777426 -0.3125121 -0.22169153 -0.33192375 0.11210808 0.08128417

input_features.module_dict.Datum__ludwig.encoder_obj.embed_minute.embeddings.weight f4 [60, 10]
00000000: 57f9 56be 7215 d5ba e8f5 5e3e d739 9ebe
00000010: 6309 bfbd a30e 5abe 503a 03be a263 8a3e
00000020: 2b52 c2bd cc6e 86be 22e3 523e 8c03 89be
00000030: 88eb cdbd 0308 e73d 517e 843e 8e7b 913e
00000040: 47db 8cbd 0815 c83d 36a5 83be 8756 69bd
00000050: df81 babd 7035 aa3d 6c6d 44be 5b8a 813d
00000060: a6e2 1a3e 46a5 693e 75c4 4abd aff2 883e
00000070: f19f 8dbe c0e8 a9bd 8b50 e33d 63c0 993d
00000080: 7a2f 0d3e 01f0 46be 2d98 383e e6ae 8cbe
00000090: 5f90 4dbe e31b a3bc 90a0 91be 8d7b 8ebe
000000a0: ce11 85be 7508 713e 1286 833d 1b50 bfbd
000000b0: fd23 45bc 74a7 82be 4e92 8dbe 6312 51be
000000c0: 7004 91be 6a3d 453e f2d0 d1bd 4edb a1bd
000000d0: 9015 81be 469c 463d 3deb 33bd 0719 4cbe
000000e0: bc37 403e 8eb3 7c3e 54b0 55be dadb 293e
000000f0: 58b8 42bd 0425 35bb 4637 ff3d 04a2 5abd
00000100: 59b8 7e3e 5e74 383e 849b 42be e571 36be
00000110: ea84 94be 24f8 bf3d c380 61be 7c48 7bbe
00000120: e328 40be 3f33 94be 741b 74be 38b4 853e
00000130: 4376 273e 52d0 843e f56c 11be 89ec f5bd
00000140: c060 d2bd af5d bb3b ff2e 57be 99cd 2f3d
00000150: a523 40be dc7e 3d3d 724e 893e 998a 4a3d
00000160: 50af 5a3e 8f84 55be d13b 29bd 2e1e 39be
00000170: c40b 05bd 2784 eebd 9138 2abe f6ca 90be
00000180: 2753 debd d497 203d 1ef6 52bd 659b 8bbe
00000190: 5e33 613e 914b 5e3e 68bf 34be 9ece f33c
000001a0: 4c11 473e c259 8ebe 3b73 84be c158 263e
000001b0: 9202 bebb e8ee be3d fe57 f9bd d16c 593d
000001c0: 58d6 463e 5eb0 92bd fbab c1bd 42bb 8ebe
000001d0: 5d0b 39bd 81f8 3d3e 07aa 8dbe 2944 b9bc
000001e0: 3888 5a3e f621 abbd d787 ddbd 34db b4bd
000001f0: ebed f2bd ad86 0f3d 9852 90be 7520 e53d
00000200: 446e 97bd b7ad 18bd e9d0 a1bc 087a 273e
00000210: 1439 3abe ad67 88be 8adb 58be 89ed 5bbe
00000220: 23f6 11be b0c8 6c3e 57ed 67be 903a 30be
00000230: 2d65 74be 4e9b 16be f0a8 06bc 3dce 36be
00000240: aace 4a3b 35a0 ca3d 1707 4cbd a559 013e
00000250: 5296 893d 8acd 903e 2ae4 74bc fbec 813e
00000260: 4065 603e 3a51 0f3e 38aa 293e 36c6 48be
00000270: 94c9 48be ae06 003e 8ab6 d93d 0646 873e
00000280: 8a22 1cbd f371 5cbd 8585 4d3e c0e9 1a3c
00000290: 54ba 8c3e 0feb 18be 48ba c4bd fb41 4f3c
000002a0: 11e5 1f3e 3569 83be f1d5 a7bd 57b9 593e
000002b0: 3db2 793d 22f3 533e 621a cbbd 7ffc 3cbe
000002c0: 6cac 4cbe 038e 28be a64c 61be e991 143e
000002d0: 7229 a13d 2fd1 3fbe 7165 893e 1eb4 aa3d
000002e0: 9324 df3d f0a3 fcbd 7b8f 4f3e 1d79 53be
000002f0: 9f87 5a3e e3e9 22be 33ab fe3d 41e9 d8bd
00000300: c0c4 423e 426e 7bbe d5d0 69bd 05d7 a1bd
00000310: 1a45 33be 1f42 13be b43f a8bd 5baf f83c
00000320: 1fcc 543e 180f 45bd 2cee 923e 09aa 0ebe
00000330: f656 1abe fc35 7abc c417 59bd 4973 be3d
00000340: 0081 8a3e 714b cd3d 4edc 7abe 2edb ccbd
00000350: 513c 6ebd 307f 88be 1a63 b93d d8d8 823e
00000360: 21e5 143e dcf6 bdbb 5f97 b6bc 8f64 0cbe
00000370: c838 05bd 6077 833e d121 1abe 42da 3f3d
00000380: 97f7 5bbe 3af7 a3bd c6e1 8a3c 4a60 62be
00000390: a7e8 a23d a0b8 80be a8ef f4bd b8a0 503e
000003a0: d89c 8c3e bf83 bbbc f046 56be a327 76be
000003b0: eb59 93bd 13fd 18be c44f 6e3e 33b7 55be
000003c0: 2275 343e 0600 643d 0f5e b6bd d960 743e
000003d0: 62d5 263e a2c4 27bc 0b32 4bbe bf79 b0bd
000003e0: 3c53 c13d e2e1 813e 6456 cabd 452e f9bd
000003f0: 4d75 92be a344 383e f94d 923e 4d67 4e3e
-0.20993553 -0.0016257002 0.21773493 -0.30903503 -0.09327962 -0.21294646 -0.12815213 0.2702914
-0.094883285 -0.26256406 0.20594457 -0.2676052 -0.1005469 0.11280825 0.25877622 0.28414577
-0.06877761 0.097696364 -0.25711983 -0.056967285 -0.09106802 0.08310974 -0.19182366 0.06325217
0.15125522 0.22816953 -0.049503762 0.26747653 -0.27661088 -0.08296347 0.11099347 0.07507398
0.13787642 -0.19427492 0.180268 -0.27477187 -0.20074604 -0.019910758 -0.28442812 -0.27828637
-0.25990146 0.23538382 0.06422056 -0.09341451 -0.012032506 -0.25518382 -0.27650684 -0.2041717
-0.28323698 0.19261709 -0.10244931 -0.07903157 -0.25211763 0.048488878 -0.043925513 -0.19931422
0.18771261 0.2467787 -0.20868045 0.16587773 -0.047539085 -0.0027640471 0.124617144 -0.053377166
0.2487501 0.1801314 -0.19004637 -0.17816885 -0.29007655 0.09373501 -0.22021775 -0.2453937
-0.18765597 -0.28945348 -0.23838598 0.26114058 0.16353707 0.25940186 -0.1420172 -0.12008006
-0.1027236 0.005717955 -0.21014021 0.042920683 -0.18763597 0.04626356 0.26817662 0.049448583
0.21355939 -0.20851348 -0.04131681 -0.18077919 -0.032481924 -0.116463 -0.16623141 -0.28279847
-0.10855704 0.039207295 -0.051504247 -0.27266994 0.21992251 0.21708514 -0.1765114 0.029761609
0.19440192 -0.27802855 -0.25869164 0.16244794 -0.0057986462 0.093229115 -0.12174986 0.05308229
0.19417703 -0.071625456 -0.09456631 -0.2787724 -0.045176852 0.18551828 -0.27668783 -0.02261551
0.21341026 -0.08356087 -0.10816925 -0.08830872 -0.118617855 0.035040546 -0.28188014 0.11187831
-0.073940784 -0.037275042 -0.019752936 0.16355145 -0.18185836 -0.26641598 -0.21177498 -0.21477331
-0.1425405 0.23123431 -0.22649132 -0.1720984 -0.2386672 -0.14707682 -0.008218989 -0.17852111
0.0030945935 0.09893838 -0.04981145 0.12631853 0.067181244 0.28281814 -0.014946977 0.25376114
0.21913624 0.13995829 0.1656884 -0.19606861 -0.19608146 0.12502548 0.1063052 0.2642061
-0.038118877 -0.053819608 0.20070465 0.009455144 0.27485907 -0.14933418 -0.09605843 0.012650008
0.15614726 -0.25666204 -0.08195103 0.21262108 0.060960997 0.20698217 -0.099171415 -0.18455695
-0.19987649 -0.16460423 -0.22001895 0.14508785 0.07869233 -0.18732141 0.26835206 0.08335136
0.10895648 -0.12335956 0.20269577 -0.2065167 0.21340798 -0.15909533 0.124349974 -0.10591365
0.19020367 -0.24553779 -0.057083923 -0.0790234 -0.17506829 -0.14380692 -0.082152754 0.030357054
0.20780991 -0.048110098 0.28697336 -0.13932051 -0.15072235 -0.01527166 -0.05300118 0.09299333
0.27051544 0.10024155 -0.24498102 -0.10002743 -0.05816299 -0.26659536 0.09052105 0.25556064
0.1454053 -0.00579725 -0.022288976 -0.13710235 -0.032524854 0.25677013 -0.15051962 0.046839006
-0.21481167 -0.08006139 0.01695336 -0.22107044 0.07954531 -0.25140858 -0.11959773 0.2037381
0.27463412 -0.02288997 -0.20925498 -0.24038558 -0.07194885 -0.1494029 0.23272616 -0.20870666
0.17622808 0.055664085 -0.08904659 0.2386507 0.16292337 -0.010239752 -0.19843309 -0.08616971
0.09439704 0.25367647 -0.09879759 -0.12167028 -0.28605118 0.17994933 0.28575113 0.20156594

input_features.module_dict.Datum__ludwig.encoder_obj.embed_second.embeddings.weight f4 [60, 10]
00000000: bc9f c4be d8bd a9be 2e62 acbe 77cd 803e
00000010: 5c43 a93e 8a32 99be a4ce 943e e66a a6be
00000020: 20c6 cbbe 620a 563e 7df1 293e d8ee 293e
00000030: 3374 523d c8db 8f3e 7c21 81be c652 0a3e
00000040: 8000 bebd 2ae7 6c3c 1cc4 4e3e 8aaf 56be
00000050: 6761 033e 6a86 6fbd 1dea 413e f8eb fbbb
00000060: 7dbd 143e 80d3 8f3e b015 d6bd 22a8 93be
00000070: 3f65 8d3e 430e 25be 4c06 893d 7574 3a3e
00000080: 163a 3abd 1d4d 6a3e cc48 423e 186e 71bd
00000090: bc34 9d3d dec1 b53c d0a4 923e d08e 4f3e
000000a0: 4fad 47be 6e16 e73c b3b2 213e 1432 653e
000000b0: 66b8 cc3d fac6 fe3d f968 5dbd ec14 d03b
000000c0: 947d 4fbe 06ce 763e 5012 6c3e e814 25be
000000d0: a255 80be 12c7 693e 42db 84be 1b44 403e
000000e0: c201 92be 9b45 19be 4bdd fdbd 0ae0 8c3e
000000f0: 9deb 4abd de4c 813e 0535 ae3d 0838 913e
00000100: cc91 463e deca 5c3e 4db0 823e 8426 b1bd
00000110: f7da a4bd ad31 c13d 3c0d 843e b1a7 dcbd
00000120: 02d3 6bbe ea84 6abe 8b81 0abe 2f59 3f3d
00000130: 3ac5 0abd 35e6 9fbd 7d27 0cbe ecf4 9b3d
00000140: 90f2 76be 2b79 933e 4ab7 39bd efc0 5f3d
00000150: 0285 c53d e14b e9bd d998 6c3e c834 0ebb
00000160: 92bf c43c 82b2 8ebe 356f 143d 6abc cd3d
00000170: 881a 273d 72b0 edbc d75f 623e 3d05 6d3e
00000180: 0066 4e3e fc21 50bd 2827 4f3d cc52 51be
00000190: b970 60be 3596 51bd ee09 063d 299e 2ebe
000001a0: 003d 7abe fb61 083e 0b38 db3d 9113 46be
000001b0: e07e 473e 3a16 60be b5c8 623e dc43 1f3e
000001c0: 86a4 cabd 33b6 8e3e f853 28be c4f1 08be
000001d0: 1ff3 6e3e 0c81 9abd 302b f2bd 9c8d 393d
000001e0: 17a2 4abd 81de 3c3e 2ec3 743e da5a 053e
000001f0: 3eac 813d b9a0 963d 44c5 f93b 24d4 0c3d
00000200: ec2b b63b fa6d 4c3e dca6 273e f323 f1bc
00000210: 0e6c e23d b6a4 843c cde2 d33d 1d22 763e
00000220: 62f9 4bbe 496a 2a3d de7a 79bd fd8a 92be
00000230: e1a8 91be 2405 1dbd 0d92 563e 76ae 45be
00000240: 494f c33d aec9 2c3e 0c84 5abe 8ec0 003e
00000250: b353 623d 1c78 88be 6a73 b8bb c9b9 8cbe
00000260: 730e 833e 5482 0c3e 1dbe e53d 5729 663e
00000270: 1246 653e c8cf 943e 9e61 f73d 5572 58be
00000280: 1d3b 8b3e d38e a63d 075c ecbd c325 dfbd
00000290: e543 8c3e dd31 853d d1e7 593e 4b0c bb3c
000002a0: 5077 8a3e e25e 5bbe 27e7 8e3d ec12 8f3d
000002b0: d449 5dbb 7b58 853e 8fcf 703d feeb 813c
000002c0: ed9e 4c3e 9757 bdbc f9f5 9abc 872b 77be
000002d0: 906a fbba 05f0 0bbe aa93 2d3e f466 823e
000002e0: 3ad8 8bbe 88a5 2dbe 4751 903e 70eb ffbd
000002f0: 5b4f 853e a195 933e d05e 96bd ccae 72be
00000300: 68e7 153e 8347 083e bd43 823e e332 2d3d
00000310: b003 233e 5787 80be 4e44 253d 6e1e 8d3d
00000320: 53e6 3b3e 1e7b 20be d44e 0fbd cfb2 32be
00000330: 43c4 49be df9a f93d 32dd 363d ea3e ee3d
00000340: 5874 dabb ffab ebbb e22d 38bc 56f0 213e
00000350: 1071 4fbe 3f40 813d 7863 243e 0fe1 2d3e
00000360: badd 0fbe 3c28 683e 8dcd 47be 4d53 1c3e
00000370: f13b 753e fee8 193c ecb0 b73d 7300 8ebe
00000380: bc2c edbd 4293 ebbd 788f 8bbe 96f1 7dbd
00000390: 314b 513e 39fe e4bc 4620 943e 46ef 86be
000003a0: 7020 ef3d 5c9e 813e e6b1 913e 4797 e8bd
000003b0: 5b58 87be 5d60 dcbd dd3d 5e3e 4023 d23c
000003c0: d445 8f3e a7e7 5abe 2aba 3bbe 4cc9 183e
000003d0: 8996 cd3d acc5 42be eb73 8b3e 9b3d e7bd
000003e0: 2129 79be 9ea1 a63d cbf4 27be adaa 0ebe
000003f0: 407a 27be 2715 a33d e973 0c3e 00a2 493e
-0.38403118 -0.33152652 -0.33668655 0.25156757 0.33059204 -0.2992137 0.29063904 -0.32503432
-0.39799595 0.20902398 0.16596027 0.16595018 0.051380347 0.28097367 -0.2522086 0.13508138
-0.09277439 0.014459411 0.20191997 -0.209654 0.12830125 -0.058477797 0.18936963 -0.007688042
0.14525409 0.2809105 -0.10453355 -0.28839213 0.27616307 -0.16118722 0.06690654 0.18208487
-0.04546555 0.22880979 0.18973082 -0.058942884 0.07676074 0.02218717 0.28641367 0.20269322
-0.19499706 0.028208937 0.15790825 0.22382385 0.09996109 0.124402955 -0.054055188 0.0063501503
-0.20262748 0.24102029 0.2305386 -0.16121256 -0.25065333 0.22829846 -0.2594853 0.1877598
-0.28516966 -0.14967959 -0.12395724 0.27514678 -0.049541105 0.25253958 0.085062064 0.2836306
0.19391555 0.21561763 0.25525132 -0.086499244 -0.08049577 0.09433303 0.25791347 -0.10774172
-0.23029712 -0.22902265 -0.13525979 0.04671591 -0.033879496 -0.078075804 -0.13686939 0.076150745
-0.24115968 0.2880338 -0.045340814 0.054627355 0.0964451 -0.11391426 0.23105182 -0.002169894
0.02401713 -0.27870566 0.036238868 0.10045703 0.040796787 -0.0290148 0.22106872 0.2314653
0.20156097 -0.05081366 0.05057445 -0.20441741 -0.21918 -0.05116864 0.032724313 -0.17052521
-0.24437332 0.13318627 0.10704049 -0.19343401 0.19481993 -0.21883479 0.22146876 0.1555323
-0.098946616 0.27873382 -0.16438282 -0.13373476 0.23334931 -0.07544145 -0.118246436 0.045301065
-0.049470987 0.18444254 0.2390258 0.13022938 0.06331681 0.07354874 0.007622393 0.034382
0.005559435 0.19963828 0.16372246 -0.029436087 0.11055766 0.016191822 0.10345993 0.2403645
-0.1991935 0.041605268 -0.06090819 -0.28621665 -0.28449157 -0.03833498 0.20954151 -0.19304833
0.09536607 0.1687381 -0.21339434 0.12573454 0.055255603 -0.26654136 -0.005628993 -0.27485493
0.2559696 0.13721591 0.11217902 0.22476707 0.22390011 0.29064775 0.12079166 -0.21137364
0.27193537 0.0813271 -0.1154099 -0.10895874 0.2739555 0.06503651 0.21279837 0.02283301
0.27044153 -0.21422914 0.069776826 0.06986031 -0.0033765929 0.26044068 0.058791693 0.0158596
0.199825 -0.023113055 -0.018916117 -0.24137698 -0.0019181538 -0.13665779 0.1695086 0.25469172
-0.27313405 -0.16957676 0.2818701 -0.12496078 0.26037106 0.28825095 -0.07342303 -0.23699492
0.14639056 0.1330853 0.25442305 0.042284857 0.15919375 -0.25103256 0.040348344 0.068905696
0.1834958 -0.15671965 -0.034987286 -0.17451023 -0.19703774 0.121877424 0.044644542 0.11633094
-0.0066667013 -0.0071921344 -0.011241408 0.15814337 -0.20257974 0.06311082 0.1605357 0.16980384
-0.14049426 0.22671598 -0.19512005 0.15266152 0.23948647 0.009393929 0.08969292 -0.27734718
-0.11580798 -0.115026966 -0.27257895 -0.061997972 0.2043884 -0.027953254 0.28930873 -0.26354426
0.11676109 0.2531613 0.28456038 -0.11356979 -0.26434597 -0.10760567 0.21703286 0.025651574
0.27982962 -0.21377431 -0.18332735 0.14920539 0.10038478 -0.19020718 0.27236876 -0.11291047
-0.24332096 0.08136295 -0.16401975 -0.13932295 -0.16355228 0.07963019 0.13716091 0.19690704

output_features.module_dict.Schluss__ludwig.decoder_obj.dense.dense.weight f4 [1, 75]
00000000: f295 40be 0439 543f 49c2 853f c85d 8dbf
00000010: 3fa8 3bbf 28d9 e6be 63ad 873f 523a 3bbf
00000020: 9431 cd3e 2027 6ebf 9459 e43e 2360 593f
00000030: 2341 773f 8069 263f 57ea 14bf 05a2 aebe
00000040: 1d52 163f 8307 d73e 8d69 f63e 3d1f 40bf
00000050: 5637 09bf 937b 0c3f 0f90 ee3e 6839 47bf
00000060: 7335 003f f312 27bf a876 1bbf 371e d6bd
00000070: dd5f 77c0 3874 7ec0 cfd3 6a40 584f 79c0
00000080: 43c3 72c0 a1a9 72c0 a8d9 75c0 1239 7740
00000090: 82d1 70c0 6551 70c0 ece8 373d 73a8 5dbe
000000a0: 7705 a83e d40b 56be 5071 933e 3ca6 863e
000000b0: fd1e 62bd 3512 333e 39ac 80be 3259 0abe
000000c0: 3b3f 9cbe 0f66 d33a 309e 323e 1506 853e
000000d0: 83f3 9cbe ab92 49be 420c 8bbe 6afa 863d
000000e0: a2ce b7be 26ba 91be 7859 eebd 80e5 af3e
000000f0: db09 66bc 109d b1bd 62a3 763e 8ff6 853e
00000100: 946c 803e af52 9bbd ef97 b4bd 4fe7 843e
00000110: 3de0 183e 28f6 c240 23a3 c240 8697 b940
00000120: 767c 02c0 b2bf 4a40 499e 8b40
-0.188072 0.828995 1.0449916 -1.1044245 -0.733036 -0.45087552 1.0599788 -0.73135865
0.40076888 -0.9302845 0.44599593 0.8491232 0.96583766 0.6500473 -0.58170074 -0.34107986
0.58719045 0.41997918 0.48127404 -0.75047666 -0.5360006 0.5487606 0.46594283 -0.7782197
0.5008156 -0.6526329 -0.6072793 -0.10454982 -3.865226 -3.9758434 3.6691778 -3.8954678
-3.7931678 -3.7916033 -3.8414097 3.8628583 -3.7627873 -3.754968 0.044899866 -0.2164629
0.3281667 -0.2090295 0.28797388 0.26298702 -0.055205334 0.17487414 -0.25131395 -0.13510588
-0.3051699 0.0016128438 0.17443156 0.25981203 -0.30654535 -0.19684856 -0.2715779 0.065907314
-0.35899836 -0.28462332 -0.116381586 0.34354782 -0.014040436 -0.086725354 0.24085763 0.26164672
0.2508284 -0.0758413 -0.088180415 0.25957724 0.1492929 6.0925484 6.082414 5.7997465
-2.0388465 3.1679502 4.363072

exp_avg f4 [12, 10]
00000000: 0372 3739 fcf7 6639 2100 74b9 20f5 21b9
00000010: 290a c7b8 d08b 6a39 44f0 21b9 a22b b138
00000020: f388 4db9 d208 c538 141f 9ab8 afda c1b8
00000030: e1aa cc38 6be2 8738 62db 2638 1403 c5b8
00000040: 8037 8838 9edd 14b8 2563 ac38 105c 25b8
00000050: 941a c2b7 b172 f4b7 8df6 0038 da6b ab37
00000060: d3fb 5137 eb32 f8b7 259d ab37 c1f3 3bb7
00000070: 6d48 d937 e07f 50b7 0538 5eb9 52f7 8bb9
00000080: 5eec 9339 314b 4439 058b f138 000f 8eb9
00000090: f515 4439 cd94 d6b8 772c 7939 49d3 eeb8
000000a0: a847 91b6 66e9 b8b6 83b0 c136 7278 8236
000000b0: 1569 1a36 cc3f bab6 7aef 7f36 f213 11b6
000000c0: 12f7 a336 552b 1eb6 1db8 3239 b816 6139
000000d0: 7fbd 6db9 8cda 1db9 07e3 c1b8 7280 6439
000000e0: 21cb 1db9 d2c9 ac38 ff46 48b9 8511 c038
000000f0: 6d46 8738 565b aa38 75e5 b3b8 26da 6eb8
00000100: 6ab7 12b8 3df1 ac38 22f1 6eb8 29c9 0238
00000110: 5486 97b8 1059 1138 ba47 16b7 2e0d 3cb7
00000120: c85a 4537 9f72 0337 8299 9f36 cee8 3fb7
00000130: 4593 0537 9c94 91b6 634f 2637 25c1 9fb6
00000140: 5767 89b7 f7b6 acb7 e0e5 b537 b46f 7237
00000150: d261 1337 bbb3 afb7 0487 7337 697a 05b7
00000160: 745e 9937 b06e 13b7 4cae a038 2265 ca38
00000170: d9e1 d5b8 b8e9 8db8 569d 2eb8 5a6c cd38
00000180: c0d5 8db8 6d2b 1b38 f91f b4b8 05a9 2c38
00000190: 8c19 e1b8 c3c9 0db9 61e6 1539 49d9 c638
000001a0: 22e1 7438 3ee8 0fb9 118d c638 8d31 59b8
000001b0: a07f fc38 48f3 71b8 54e0 fc38 e345 1f39
000001c0: a752 28b9 2b66 dfb8 0765 89b8 06ab 2139
000001d0: a025 dfb8 0234 7438 3cc7 0db9 dfe2 8738
0.00017494713 0.0002202689 -0.00023269701 -0.00015445473 -9.490952e-05 0.00022368063 -0.00015443662 8.448145e-05
-0.00019601341 9.395335e-05 -7.349081e-05 -9.24369e-05 9.759307e-05 6.479475e-05 3.97818e-05 -9.394265e-05
6.495323e-05 -3.5492347e-05 8.220066e-05 -3.9424805e-05 -2.3138979e-05 -2.9140474e-05 3.0747196e-05 2.043501e-05
1.2516003e-05 -2.9587614e-05 2.0457965e-05 -1.1202822e-05 2.5902142e-05 -1.2427539e-05 -0.00021192439 -0.00026696414
0.00028214132 0.00018720028 0.0001151767 -0.00027095526 0.00018700196 -0.000102320315 0.00023763055 -0.00011388079
-4.3296786e-06 -5.5107985e-06 5.772397e-06 3.8883236e-06 2.3008954e-06 -5.550659e-06 3.8137355e-06 -2.1618293e-06
4.8865413e-06 -2.3569057e-06 0.0001704399 0.00021466136 -0.00022672674 -0.00015054102 -9.245244e-05 0.00021791624
-0.00015048358 8.239191e-05 -0.00019099934 9.158537e-05 6.4504195e-05 8.123244e-05 -8.578125e-05 -5.694679e-05
-3.497993e-05 8.246533e-05 -5.6968194e-05 3.118176e-05 -7.225262e-05 3.465364e-05 -8.957397e-06 -1.1208742e-05
1.1763252e-05 7.834896e-06 4.75644e-06 -1.1438691e-05 7.961707e-06 -4.338637e-06 9.912855e-06 -4.7610542e-06
-1.6379794e-05 -2.0589197e-05 2.1683925e-05 1.4450332e-05 8.784658e-06 -2.094532e-05 1.45153645e-05 -7.955919e-06
1.8283004e-05 -8.787654e-06 7.66186e-05 9.650948e-05 -0.00010198699 -6.7669374e-05 -4.1631363e-05 9.795344e-05
-6.763218e-05 3.6995323e-05 -8.589024e-05 4.1165407e-05 -0.000107335945 -0.0001352197 0.0001429557 9.481848e-05
5.8383805e-05 -0.0001372406 9.4676514e-05 -5.178298e-05 0.000120400684 -5.768545e-05 0.00012058081 0.00015189456
-0.00016052519 -0.00010652499 -6.551487e-05 0.00015417868 -0.00010640477 5.822257e-05 -0.00013521028 6.47956e-05

exp_avg_sq f4 [12, 10]
00000000: 5625 5735 d4cb a635 3de2 c135 62eb 2f35
00000010: 3f49 8334 5859 b235 f2e8 2d35 de72 6734
00000020: 5d38 8835 7930 8c34 ae25 7b35 746e c235
00000030: c807 e235 bc70 4e35 460d 9d34 76dc d035
00000040: 7262 4e35 688b 8b34 bc08 9f35 006e a634
00000050: 2796 7f35 9f3f c635 4e65 e535 e8fc 5035
00000060: c104 9c34 eba3 d435 b5b1 5135 9704 8f34
00000070: 93b1 a035 9c97 a934 a614 9d35 f76a f335
00000080: 0e65 0d36 0b63 8035 1513 c134 be5c 0236
00000090: ef6c 7f35 78a2 ab34 b28f c635 a61b ce34
000000a0: 5ca6 9f35 284f f735 52f4 0f36 81cb 8335
000000b0: fa61 c634 fcc7 0436 8713 8335 0179 b334
000000c0: 3c32 ca35 dde9 d434 df9c 8a35 42fb d635
000000d0: 515b fa35 e9aa 6335 0cb7 aa34 b541 e635
000000e0: 41e6 6035 7b84 9634 e909 b035 e806 b634
000000f0: a09e 8f35 c013 de35 8700 0136 a734 6a35
00000100: ae03 b034 db69 ee35 efb8 6835 4b26 9a34
00000110: c2ff b535 fb35 ba34 e448 9a35 d84f ef35
00000120: e72b 0b36 b124 7e35 f35a c034 16d4 ff35
00000130: 7cd4 7d35 59ec ac34 d9f1 c235 f766 cc34
00000140: 5a67 7f35 5c1b c635 b38a e535 fa25 5135
00000150: e664 9c34 5550 d435 907a 4f35 c1c2 8b34
00000160: 2aa9 a135 140e a834 1d2e 3435 4d9b 8b35
00000170: 4719 a235 1a45 1435 94b1 5f34 b203 9635
00000180: f7ff 1335 d79b 4a34 6903 6435 5821 7034
00000190: d768 8635 afd5 d035 d108 f135 8f4c 5a35
000001a0: 71e1 a334 baea de35 c239 5935 0367 9034
000001b0: c6d8 a935 4198 ae34 0402 7335 7f0b bc35
000001c0: 99d7 d935 50b4 4735 e6fe 9334 2a96 ca35
000001d0: a9fe 4535 99a3 8734 e58c 9935 34ed a134
8.014807e-07 1.2427286e-06 1.4445465e-06 6.553511e-07 2.4453945e-07 1.3288036e-06 6.47865e-07 2.155534e-07
1.0149193e-06 2.61123e-07 9.355962e-07 1.4486272e-06 1.6840577e-06 7.690503e-07 2.9253187e-07 1.556137e-06
7.6884237e-07 2.59922e-07 1.1848965e-06 3.0999945e-07 9.5213403e-07 1.4770666e-06 1.7091313e-06 7.7854065e-07
2.9060723e-07 1.5842937e-06 7.8117165e-07 2.6639165e-07 1.197261e-06 3.1589013e-07 1.1703421e-06 1.8136042e-06
2.1069459e-06 9.565568e-07 3.5962935e-07 1.9425493e-06 9.515342e-07 3.1969444e-07 1.479397e-06 3.8390607e-07
1.189484e-06 1.8425972e-06 2.1450874e-06 9.819488e-07 3.695166e-07 1.978594e-06 9.765944e-07 3.342939e-07
1.5064793e-06 3.9658235e-07 1.0327457e-06 1.6017368e-06 1.8653028e-06 8.4812797e-07 3.1798152e-07 1.7155459e-06
8.3781566e-07 2.803607e-07 1.3115906e-06 3.3905167e-07 1.0700496e-06 1.6546037e-06 1.9222805e-06 8.724841e-07
3.2785232e-07 1.776319e-06 8.669585e-07 2.8712597e-07 1.3559986e-06 3.4684476e-07 1.1495108e-06 1.7830125e-06
2.0738169e-06 9.4675767e-07 3.582896e-07 1.9060706e-06 9.455905e-07 3.2209462e-07 1.4524513e-06 3.8072878e-07
9.51453e-07 1.4760112e-06 1.7102196e-06 7.791383e-07 2.9130678e-07 1.581861e-06 7.729186e-07 2.603247e-07
1.2044668e-06 3.1302682e-07 6.712233e-07 1.0401506e-06 1.2077297e-06 5.523485e-07 2.0833096e-07 1.1176946e-06
5.5134245e-07 1.886941e-07 8.494158e-07 2.2363872e-07 1.001429e-06 1.5559398e-06 1.7958465e-06 8.1322736e-07
3.0525146e-07 1.6608603e-06 8.092285e-07 2.689704e-07 1.2654571e-06 3.2520805e-07 9.052749e-07 1.4010437e-06
1.6230507e-06 7.4395666e-07 2.7566347e-07 1.5093876e-06 7.37588e-07 2.5264742e-07 1.1440394e-06 3.0161175e-07

exp_avg f4 [31, 10]
00000000: c8bd 5338 cde1 7038 3405 2238 471c 11b8
00000010: 984c abb7 1825 1238 c13b d237 b8ab ef37
00000020: a837 3bb8 3fbd 05b8 a4fc 1138 2304 2638
00000030: 7877 df37 9f15 c8b7 473e 6ab7 07f2 c937
00000040: 213f 9037 f182 a537 c70a 01b8 7270 b8b7
00000050: 993d 4bb6 bc1b 67b6 39c2 16b6 27ed 0c36
00000060: 1b39 b235 30ad 08b6 5364 d5b5 162d e1b5
00000070: 3064 3536 e212 ff35 3e81 56b9 d8f2 73b9
00000080: 2ce8 23b9 9621 1339 48cc ac38 6c1d 14b9
00000090: 5aa0 d4b8 d4cb f2b8 86bc 3d39 8d89 0739
000000a0: 1cb0 9337 b0f7 a737 fe24 6137 82fb 4ab7
000000b0: c256 f0b6 af4d 4b37 9e5d 1337 21b6 2637
000000c0: 68d2 82b7 0ce0 3ab7 01c7 7bb8 fb32 8fb8
000000d0: 45ae 40b8 1489 2c38 2733 cb37 a6d8 2db8
000000e0: 8aaf f9b7 6087 0eb8 04a0 5e38 820b 1f38
000000f0: bf88 5db6 e511 7cb6 21bc 28b6 5b0e 1836
00000100: 1467 b635 b950 18b6 4d0f deb5 2a57 fab5
00000110: 1e26 4436 a8b0 0b36 2a01 c6b8 7d40 e1b8
00000120: ffa1 97b8 c2a3 8738 4be5 1e38 b0f5 88b8
00000130: bbab 43b8 9980 60b8 d302 af38 1409 7a38
00000140: f91b 0b39 2730 1e39 e5aa d438 ebc8 beb8
00000150: df1b 60b8 7e28 c038 aed8 8938 5781 9d38
00000160: e005 f6b8 89c9 afb8 aae3 0138 f0d5 1338
00000170: 1363 c737 bbbe b1b7 f478 52b7 685d b337
00000180: 9ff3 8037 531b 9337 6389 e5b7 a008 a4b7
00000190: 208b 15b7 20ff 29b7 5303 e4b6 df5b cd36
000001a0: f19b 6e36 0f1f cfb6 ea79 93b6 f4ab a9b6
000001b0: 984e 0437 8bd7 bc36 d782 2838 39a2 3f38
000001c0: b8e7 0038 ecfe e6b7 10e3 86b7 8427 e937
000001d0: a84d a637 2906 bf37 0df2 14b8 83d3 d4b7
000001e0: 7322 33b7 53b0 4bb7 d10a 09b7 a683 f536
000001f0: 3236 9136 915d f7b6 92fc b1b6 dbf9 cab6
00000200: 4b70 1e37 894c e236 a255 2739 9455 3e39
00000210: dec2 ff38 037c e5b8 9f03 87b8 3d12 e738
00000220: 80fd a538 736e bd38 bd01 14b9 a755 d3b8
00000230: b7c3 57b7 2225 75b7 b42f 25b7 79e5 1337
00000240: 74d1 a936 0bc6 15b7 16f9 d2b6 7717 f5b6
00000250: a887 3e37 ac75 0837 9e02 0837 1a88 1a37
00000260: 3bb7 d036 a2f0 b9b6 6b5a 52b6 7aec bd36
00000270: 1833 8336 7d2e 9b36 089a efb6 573e abb6
00000280: e4ed 5b38 6e03 7a38 ebd0 2738 97fc 16b8
00000290: a14c b0b7 b200 1838 8390 d937 7015 f937
000002a0: d59b 42b8 bc07 0bb8 f57f 1339 91c3 2739
000002b0: 5089 e138 1d46 cab8 908c 6db8 e6bf cb38
000002c0: 7e28 9238 7200 a738 0a72 02b9 f459 bab8
000002d0: 9c4f 50b8 dbf1 6cb8 cf03 1fb8 aee8 0e38
000002e0: 8849 a837 43c0 0fb8 11d0 ceb7 31ae ebb7
000002f0: ed51 3838 f185 0338 9bf0 b536 fe5e cf36
00000300: bb78 8b36 90a3 79b6 4e18 13b6 de93 7a36
00000310: 0143 3536 4569 4d36 be44 a1b6 5877 66b6
00000320: 0cce 92b5 c827 a6b5 7c22 6fb5 eb12 4335
00000330: 8a4e 9d34 3754 5eb5 d568 e6b4 940e 33b5
00000340: 6927 7b35 96c7 3935 cd0f 6138 1202 8038
00000350: 00f9 2b38 e056 1ab8 ca79 b5b7 b667 1b38
00000360: 2f34 df37 3fc8 fe37 a015 47b8 041c 0eb8
00000370: 8228 3837 a76a 5137 6284 0c37 707e fcb6
00000380: 8883 93b6 2621 ff36 24e7 b536 1633 d136
00000390: 65de 22b7 e5ff e7b6 e826 b8b7 947f d1b7
000003a0: 7711 8db7 b13d 7c37 d082 1337 4ef9 7eb7
000003b0: 61d8 35b7 b2f9 50b7 5ab9 a237 3763 6837
000003c0: be0f 52b7 a3d2 6eb7 58bb 1fb7 e866 1037
000003d0: 7c5f ab36 6479 10b7 3fdb d1b6 02e1 ecb6
000003e0: f40c 3a37 eeb7 0437 6db0 89b8 c3a2 9cb8
000003f0: 614e 52b8 15e1 3c38 6d54 df37 e7df 3db8
5.0483068e-05 5.7430752e-05 3.8628656e-05 -3.459703e-05 -2.0420455e-05 3.484366e-05 2.5061776e-05 2.8570983e-05
-4.463611e-05 -3.188592e-05 3.4805984e-05 3.9581337e-05 2.6639304e-05 -2.3851926e-05 -1.3961987e-05 2.407377e-05
1.7195534e-05 1.9730507e-05 -3.0766034e-05 -2.198687e-05 -3.0285212e-06 -3.4437826e-06 -2.2464794e-06 2.0999667e-06
1.3278653e-06 -2.0366388e-06 -1.5898935e-06 -1.6776928e-06 2.7029419e-06 1.9004476e-06 -0.00020456777 -0.00023264752
-0.00015631382 0.00014031524 8.2396495e-05 -0.0001412534 -0.000101388156 -0.00011577425 0.00018094675 0.00012925845
1.7605773e-05 2.002329e-05 1.3419658e-05 -1.2098697e-05 -7.1626573e-06 1.211783e-05 8.78368e-06 9.936776e-06
-1.5595186e-05 -1.1138629e-05 -6.00284e-05 -6.828267e-05 -4.593867e-05 4.113566e-05 2.4223305e-05 -4.1448184e-05
-2.9764855e-05 -3.3981516e-05 5.307795e-05 3.791927e-05 -3.3011163e-06 -3.7561342e-06 -2.5143456e-06 2.265812e-06
1.3590056e-06 -2.2696752e-06 -1.6544742e-06 -1.865182e-06 2.9228463e-06 2.0815442e-06 -9.4415926e-05 -0.00010740848
-7.230415e-05 6.467804e-05 3.788368e-05 -6.530748e-05 -4.665156e-05 -5.3525528e-05 8.345176e-05 5.96131e-05
0.00013266494 0.00015085992 0.00010140779 -9.09733e-05 -5.343172e-05 9.162816e-05 6.573029e-05 7.510435e-05
-0.000117312884 -8.382189e-05 3.0968025e-05 3.5246776e-05 2.3768784e-05 -2.118886e-05 -1.2545137e-05 2.1381959e-05
1.5372234e-05 1.753649e-05 -2.7362903e-05 -1.955434e-05 -8.913485e-06 -1.0132586e-05 -6.7953165e-06 6.1201713e-06
3.5555533e-06 -6.1726964e-06 -4.395134e-06 -5.0566105e-06 7.886112e-06 5.627929e-06 4.0176175e-05 4.568903e-05
3.0733383e-05 -2.7536844e-05 -1.6079779e-05 2.7794165e-05 1.9824904e-05 2.2771843e-05 -3.5511377e-05 -2.5370862e-05
-1.0677252e-05 -1.2140797e-05 -8.168355e-06 7.316895e-06 4.327646e-06 -7.372066e-06 -5.304414e-06 -6.049156e-06
9.443679e-06 6.7442347e-06 0.00015958262 0.00018151692 0.000121956444 -0.0001094267 -6.437976e-05 0.000110183355
7.915031e-05 9.032795e-05 -0.00014115027 -0.00010077218 -1.2860567e-05 -1.4611784e-05 -9.845873e-06 8.815311e-06
5.060976e-06 -8.9272025e-06 -6.287485e-06 -7.3043007e-06 1.1356467e-05 8.133629e-06 8.106841e-06 9.210804e-06
6.220214e-06 -5.541443e-06 -3.1345069e-06 5.6601684e-06 3.9100523e-06 4.624772e-06 -7.1406866e-06 -5.1034544e-06
5.243522e-05 5.960784e-05 4.0010473e-05 -3.599803e-05 -2.1016518e-05 3.624027e-05 2.593571e-05 2.9693096e-05
-4.6398334e-05 -3.3147386e-05 0.0001406668 0.00015999215 0.000107544125 -9.64517e-05 -5.6636112e-05 9.715538e-05
6.969365e-05 7.9632635e-05 -0.00012440249 -8.885926e-05 -4.9665206e-05 -5.649203e-05 -3.79121e-05 3.4072138e-05
2.0061401e-05 -3.4272914e-05 -2.4654002e-05 -2.8095297e-05 4.3945318e-05 3.1357577e-05 5.4222305e-06 6.1801393e-06
4.1565777e-06 -3.7199097e-06 -2.1918854e-06 3.7338973e-06 2.7010103e-06 3.0608655e-06 -4.8061765e-06 -3.4342138e-06
-1.0937815e-06 -1.2379542e-06 -8.908462e-07 7.267069e-07 2.9300674e-07 -8.2823993e-07 -4.2917114e-07 -6.670391e-07
9.3562136e-07 6.9208306e-07 5.3658896e-05 6.103901e-05 4.1001476e-05 -3.679737e-05 -2.1633594e-05 3.7051468e-05
2.6607971e-05 3.0372406e-05 -4.7465437e-05 -3.388153e-05 1.0976686e-05 1.2482203e-05 8.375473e-06 -7.5249045e-06
-4.3962536e-06 7.603451e-06 5.4211287e-06 6.2346326e-06 -9.707733e-06 -6.9141265e-06 -2.1952626e-05 -2.497415e-05
-1.6816643e-05 1.5034734e-05 8.79234e-06 -1.51976255e-05 -1.083882e-05 -1.2455903e-05 1.9398216e-05 1.3851378e-05
-1.2520641e-05 -1.4234948e-05 -9.520758e-06 8.607029e-06 5.107313e-06 -8.611332e-06 -6.254209e-06 -7.0595424e-06
1.108948e-05 7.910638e-06 -6.565531e-05 -7.4689764e-05 -5.0140898e-05 4.5032317e-05 2.6622985e-05 -4.5269637e-05
